models/CompactSTEIConvMSGRAD_OtanhEtanh4_1_9_in2_efeat36+31+4+4new_segment_normal_hidden_64_wMAEnew_classifyS05_adam5e-5.pt (torch, 733463 bytes, 21 tensors)

eiconvOUT_layers.0.weight0e f4 [75, 64]
000000 03 af 3f be 20 97 ac bc c0 ea ae bb 05 72 2f 3e
       -0.18719105 -0.021068156 -0.005338043 0.17133339
000010 d2 2b c5 3d 36 72 c7 3d dd cb 29 3e eb 8b 1e 3e
       0.09627499 0.09738581 0.16581674 0.15483062
000020 bc f0 2d be 9e 8e f8 3d 5c 52 56 3d c0 94 91 3b
       -0.16986364 0.12136577 0.052324638 0.004442781
000030 7e 58 8d 3d 25 81 d0 bd 1a 98 d0 3d 40 4e 09 bd
       0.06901644 -0.10180882 0.10185261 -0.03352189
000040 6e 73 3b be 30 ab e9 bc 5e a4 b3 bd c0 48 09 3b
       -0.18305752 -0.028524011 -0.08771585 0.0020947903
000050 0e 23 01 be 2c cc 80 bd a0 c4 e9 3b f8 f0 a0 3c
       -0.12611029 -0.06288943 0.007134035 0.019646153
000060 70 1b 2f 3c 35 6b 40 3e e0 9c d6 bd 00 24 95 bd
       0.010687694 0.18790896 -0.1047914 -0.07282257
000070 18 23 fb bd 55 7a 24 3e 70 3f 31 3c 66 a1 97 3d
       -0.12262553 0.16062291 0.010818347 0.07403831
000080 7a e9 a5 3d 1c b2 25 be 3b 99 1b be 32 7d 14 be
       0.08101173 -0.16181225 -0.15195172 -0.14500883
000090 47 36 2a be c1 c7 20 3e 85 3c 32 3e 9e 16 c0 3d
       -0.16622268 0.157012 0.17405899 0.09379314
0000a0 9e c1 99 3d 2d 36 44 3e db 3d 10 3e 72 dd bb 3d
       0.07507633 0.19161291 0.14086096 0.09173097
0000b0 8c 08 0c be b0 e6 23 bc 9c 40 62 bd db 91 4e 3e
       -0.13675135 -0.010003731 -0.055237398 0.20172827
0000c0 af d3 1c 3e 00 06 41 3b 6a 53 2a be fc 5c 66 bd
       0.15315126 0.002945304 -0.16633382 -0.05624102
0000d0 8c 8d 2d be 2a c5 b9 3d fc 8c 4a 3d 4a 60 f0 3d
       -0.16948527 0.09070809 0.04945086 0.11737116
0000e0 a6 d9 cc 3d f3 76 3a 3e ef 76 47 3e c8 7a 02 bd
       0.10002451 0.18209438 0.19478963 -0.031855375
0000f0 2c 0b 66 3d 68 ca a2 3c b6 3d d1 3d 30 aa 5d bc
       0.056162998 0.019871905 0.102168486 -0.013529345
000100 93 33 0f be a9 29 3e 3e e8 07 01 bd 48 d3 05 3d
       -0.13984518 0.1857058 -0.03150168 0.032672197
000110 37 a4 3a 3e fa aa cf 3d 0c df 95 bd b1 0a ed bd
       0.18226705 0.10140033 -0.073179334 -0.11574305
000120 18 42 de bc 27 8e 46 3e 80 66 db bb 78 c1 32 bd
       -0.027131125 0.19390164 -0.0066955686 -0.043641537
000130 8d 22 2a 3e f0 c0 9b bc d1 b4 52 3e 0c 77 62 3d
       0.16614743 -0.019012898 0.20576788 0.055289313
000140 50 8e 75 bc e5 ff 04 be 7f 3c 3d 3e c0 9e 6d 3c
       -0.014987543 -0.12988241 0.18480109 0.014503181
000150 39 c3 4c 3e b3 e4 14 3e 2d cc e6 bd 86 39 85 3d
       0.19996347 0.14540367 -0.11269412 0.06505112
000160 2d ea ab bd bc 48 d3 bd e4 4a 76 3d ab d0 e2 bd
       -0.08394275 -0.10316607 0.060130015 -0.110749565
000170 50 ad 52 bc c3 e3 50 3e 6b e4 0b 3e 6c 3f fa bd
       -0.012858704 0.20399384 0.13661353 -0.12219128
000180 10 82 50 3c 80 9a 61 bd e8 df f6 3c b8 27 de bd
       0.012726322 -0.055078983 0.030136064 -0.108474195
000190 d1 ef 1c 3e d9 c6 46 be 32 a6 e0 3d f0 12 57 bd
       0.15325858 -0.19411792 0.10969199 -0.052508295
0001a0 4f ab 24 3e 98 cc 26 be ec 4d 74 3d 0a 3f f6 3d
       0.16080974 -0.16288984 0.059644625 0.120237425
0001b0 45 ec 36 3e 35 9c d5 bd 98 35 fe bd d6 3a ba 3d
       0.17863567 -0.10430185 -0.12412566 0.09093253
0001c0 28 ae d3 3c 05 42 3c 3e ad 5e bc bd 05 01 21 3e
       0.02583988 0.1838456 -0.091977455 0.15723045
0001d0 4e e4 87 3d 34 27 17 be 54 ba 50 3d ef 79 07 3e
       0.066353425 -0.14761049 0.050958946 0.13230108
0001e0 60 f6 1c 3d c3 c1 47 3e 22 db bb 3d 9a a1 cb 3d
       0.0383209 0.19507508 0.09172656 0.099429324
0001f0 2c 15 45 3d cc f0 9d bd ce 26 37 be d8 e3 18 bd
       0.048115894 -0.07711944 -0.17885897 -0.037326664
000200 c0 94 4f 3b a5 1b 41 3e 1d 8b 3b 3e 87 0f 09 3e
       0.0031674355 0.18858202 0.18314786 0.1338483
000210 c0 39 a3 bd ae 1b 99 3d e8 34 c9 bc 94 16 73 bd
       -0.07969999 0.074759826 -0.02456136 -0.059347704
000220 dc 37 b7 bd 4a 9d 86 bd 6c 69 18 3d e2 36 31 be
       -0.08946201 -0.06572969 0.037209913 -0.17306092
000230 2e ef 8e bd c6 3b d3 3d 5c 58 69 bd 10 18 da 3c
       -0.06979214 0.10314135 -0.05696903 0.026622802
000240 01 47 46 3e c7 f9 09 3e 20 4b 7c bd d5 78 00 3e
       0.19363023 0.13474189 -0.061595082 0.12546094
000250 29 ae 2b 3e 4c af bf bd 2d 96 48 be ea 08 a5 3d
       0.16765656 -0.09359607 -0.19588538 0.08058341
000260 bb 38 0c 3e b0 c0 47 bc bd ae 16 be 09 28 49 3e
       0.13693516 -0.012191936 -0.14715095 0.19644178
000270 53 7e 30 be ee 99 13 be c2 4b bc bd 09 2c 4c be
       -0.17235689 -0.14414188 -0.09194137 -0.19938673
000280 7c 75 6f bd 88 1a d7 3c 23 b5 01 3e 09 c9 23 be
       -0.05846165 0.026257768 0.12666754 -0.15994658
000290 1a fc 8a 3d 60 51 97 bc d8 00 18 be e4 d2 2a be
       0.06786366 -0.01847142 -0.14844072 -0.16682011
0002a0 08 0d 38 bd 5d f1 3e be a8 cb 17 be be 55 a9 3d
       -0.044934303 -0.1864676 -0.14823782 0.08268307
0002b0 59 52 2c 3e 61 34 28 3e e8 7b a4 bc 80 c7 14 bb
       0.16828288 0.16426231 -0.020078614 -0.002270192
0002c0 4c b1 4b 3d 85 12 3b 3e 76 b1 b0 bd 9c 7c 42 be
       0.04972963 0.18268783 -0.08627598 -0.18992847
0002d0 90 03 dc bd 65 82 3a 3e 04 40 42 3d a4 48 71 3d
       -0.10742867 0.18213804 0.04742433 0.058907166
0002e0 d8 08 87 bc c7 d7 38 3e 13 38 30 be ae 3b 03 be
       -0.01648371 0.18051063 -0.1720889 -0.12815735
0002f0 92 ec cb bd a8 58 f1 bc f3 ac 31 be 90 86 63 bc
       -0.099572316 -0.02946122 -0.17351131 -0.013887063
000300 15 66 33 3e bc 7a 7a 3d 88 f7 73 bd 98 3c 27 be
       0.1751941 0.061152205 -0.059562236 -0.16331708
000310 21 9a 30 3e 3f 3b 1e be 14 72 46 be 6a 7a 89 bd
       0.17246296 -0.15452288 -0.19379455 -0.06712802
000320 6b 33 41 3e 02 5b d6 3d f7 83 2c 3e a9 3b 52 3e
       0.1886727 0.10466577 0.16847216 0.20530571
000330 08 f8 0e 3d 22 b3 d1 3d b5 e2 32 3e 9b b6 16 3e
       0.03490451 0.10239245 0.17469294 0.14718096
000340 84 23 5b 3d e2 c0 83 3d 01 00 2d 3e 7d 43 21 3e
       0.053500667 0.06433274 0.16894533 0.15748401
000350 90 3d c5 bd 0b 0e 2b 3e 8f 5a f5 bd 94 17 60 bd
       -0.09630883 0.16704576 -0.11980163 -0.054709986
000360 83 3b b3 bd 5f 9e 45 3e d1 f8 4a 3e 6f 25 f4 bd
       -0.08751585 0.19298695 0.19821478 -0.119212024
000370 40 2b f2 3b 8e f9 44 be b5 39 4f 3e 5a 93 a8 bd
       0.0073904097 -0.19235823 0.20236857 -0.0823123
000380 0c 89 12 be b9 18 3b be 83 bf 36 3e 9b a7 36 3e
       -0.14310092 -0.1827115 0.17846493 0.17837374
000390 12 5d 85 3d 71 d4 02 3e 4e 7a 90 3d c7 3d 49 3e
       0.065118924 0.12776352 0.07054578 0.19652472
0003a0 0c f1 1f 3d df 88 3a 3e 84 0b 34 3d be e7 95 3d
       0.03904824 0.18216275 0.043956295 0.07319592
0003b0 40 44 d2 3b 94 88 16 be 42 40 a9 3d a0 ef b1 3b
       0.0064168274 -0.14700538 0.08264209 0.005430177
0003c0 70 52 26 bc 45 70 1d 3e 04 23 41 be de 00 8f bd
       -0.010151491 0.15374859 -0.18861014 -0.06982587
0003d0 30 9a e9 3c 47 11 32 3e 8f 09 1e 3e cf fb af bd
       0.028515905 0.17389403 0.15433334 -0.085929506
0003e0 29 17 33 3e 53 c6 1a 3e 01 07 20 3e 3e 30 d2 3d
       0.17489304 0.15114717 0.15627672 0.10263108
0003f0 a0 80 66 bc 47 c9 c2 bd 50 2c 29 3c 3c ed 87 bd
       -0.0140687525 -0.09511047 0.010325506 -0.06637046

eiconvOUT_layers.0.weight0h f4 [64, 64]
000000 d4 8c 6f 3d a9 3d 47 3e ef f6 47 3e f0 ed 54 bd
       0.058483914 0.19457115 0.19527791 -0.051984727
000010 4f 6d cd bd d1 90 29 3e f8 5a 37 be 2b 2a 0a 3e
       -0.100306146 0.1655915 -0.17905796 0.13492648
000020 1c bb 06 3d 1d 9f 0b 3e 65 1a 3f 3e d5 a3 e2 bd
       0.032893285 0.13634916 0.18662412 -0.11066405
000030 8d 37 04 3e 5c 94 1f bd 5d c0 0c 3e e8 20 11 be
       0.12911816 -0.038959846 0.13745256 -0.14172709
000040 11 53 0b 3e 12 13 a6 3d b2 19 f9 3d c2 8e 01 be
       0.13605906 0.08109106 0.12163104 -0.12652114
000050 18 96 b6 3c 22 d2 2c be e4 6e 77 bd 6c 9b 29 bd
       0.022288367 -0.16877034 -0.060408488 -0.041407987
000060 10 01 4e be 60 f5 f7 3c 96 26 99 3d 31 18 0f 3e
       -0.20117593 0.030268371 0.07478063 0.13974072
000070 af 18 fe bd 42 1f 22 be 82 3d d5 3d ca 36 9c 3d
       -0.12407052 -0.15832236 0.10412122 0.07627638
000080 56 7e cb 3d 78 2e ee bc af 31 4d 3e b2 f9 f2 3d
       0.09936206 -0.029074892 0.20038484 0.11864032
000090 1d 57 e6 bd 28 33 c9 bd 34 8a 29 3d 00 8f 15 3a
       -0.11247084 -0.098242104 0.041391566 0.00057052076
0000a0 ca c0 8e 3d dc 8e 8a bd 2e cc e4 bd 72 05 ed bd
       0.06970365 -0.067655295 -0.11171757 -0.11573304
0000b0 20 75 0f bc 80 64 e8 3b f2 a7 ad 3d 66 56 2d be
       -0.008755952 0.0070920587 0.08479299 -0.1692749
0000c0 00 60 1f ba c4 08 1a 3d 82 84 fb 3d bf 4c 4f 3e
       -0.0006079674 0.037606016 0.12281133 0.2024412
0000d0 b0 7f bc 3c 53 4d ef bd e2 73 fc 3d 58 f3 72 bd
       0.023010105 -0.1168467 0.123267904 -0.059314102
0000e0 ca fe e9 3d fd a3 4d 3e 8b 6b 52 be 23 42 5a 3e
       0.1142555 0.20082088 -0.20548837 0.21314292
0000f0 6c e1 fb bd 94 52 6d 3d b0 2e 40 bd cb db 20 3e
       -0.12298855 0.05794008 -0.046919525 0.15708844
000100 e0 93 38 be fc 36 55 bd 78 fa 29 be 1a a4 8c bd
       -0.1802516 -0.05205439 -0.16599452 -0.068672374
000110 48 02 a4 bd 89 db 4b 3e 1b 36 27 3e 02 da b9 3d
       -0.080082476 0.19907965 0.16329233 0.09074785
000120 ca a2 fc bd 42 3c 37 be 4e 9f 49 be a2 63 b1 3d
       -0.12335737 -0.1789408 -0.19689676 0.086615816
000130 81 1e 25 be 33 1a 19 3e b6 06 4b be cf 00 de bd
       -0.16124918 0.149514 -0.19826779 -0.10839998
000140 7f 6c 00 3e 08 21 22 be ee 67 22 be 84 66 0b be
       0.12541388 -0.15832913 -0.15859959 -0.13613325
000150 53 9e 33 3e c9 66 5a 3e a4 2d c7 bd ad bf 29 3e
       0.17540865 0.21328272 -0.09725502 0.16577025
000160 7f a2 4a 3e a8 92 af bc e1 55 42 3e 91 6d 1c 3e
       0.1978855 -0.021432236 0.18978073 0.15276171
000170 ea 65 ce 3d 44 c3 59 be e3 b3 25 be 18 f6 4c bd
       0.10078032 -0.21265894 -0.16181903 -0.05003938
000180 ce 03 c5 3d 74 cb 00 3d 0c 05 46 be d6 9b 8b 3d
       0.09619866 0.031444028 -0.19337863 0.06816833
000190 8f c1 e7 bd b2 7a 1b be 2a b8 86 bd 5c 1f 0b 3d
       -0.11316215 -0.15183523 -0.06578095 0.033965454
0001a0 06 51 36 be 6a fb 00 be 0a 13 ea 3d f2 6b aa 3d
       -0.17804345 -0.12595907 0.11429413 0.0832137
0001b0 6e 9b e4 3d 9c 3d 23 3d c1 5c e0 bd 4f b6 1a 3e
       0.11162458 0.039853677 -0.109551914 0.15108608
0001c0 52 d2 b0 3d f0 d2 de bc 46 e4 a1 3d 1e 8d a1 3d
       0.086338654 -0.027200192 0.07904868 0.07888244
0001d0 d3 a9 3b 3e 2e e7 f7 bd a0 71 73 bd ed 69 53 3e
       0.18326502 -0.12104641 -0.059434533 0.20645876
0001e0 4b 23 24 3e 25 46 5d be 4a 93 aa bd bc 88 25 3d
       0.16029088 -0.2160879 -0.083288744 0.040413603
0001f0 d0 c8 d2 3c 64 d6 00 bd 1a 4f 21 be b0 e0 14 bc
       0.02573052 -0.03145446 -0.15752831 -0.009086773
000200 a8 35 7d bd 89 82 5c 3e aa bc f2 3d 76 92 d2 3d
       -0.06181875 0.2153417 0.11852391 0.102818415
000210 5b 28 28 3e 44 f3 17 3d 1c 29 96 bd ba 5f ca 3d
       0.16421644 0.03709723 -0.0733206 0.0988154
000220 46 de c5 bd e6 3b c1 3d 00 bd f0 3a e4 71 5a 3d
       -0.09661536 0.09435253 0.0018366873 0.05333127
000230 38 df b0 3c c0 7e 10 be c8 07 95 bc 96 39 df 3d
       0.021590814 -0.14110851 -0.018192187 0.108996555
000240 0c 2c 4e be c1 59 13 3e 66 a9 ae 3d 10 ec 1b bd
       -0.2013399 0.14389707 0.08528404 -0.038066924
000250 d2 94 a1 3d 12 6e 1f be 86 12 d8 3d 94 40 0d be
       0.07889713 -0.15569332 0.10550408 -0.13794166
000260 c1 2d 32 3e e8 da 48 be d8 43 2d bd 58 01 66 bd
       0.17400266 -0.19614756 -0.04230103 -0.056153625
000270 9c 68 04 bd 4c 2b 3e bd 76 ba f3 3d 80 ea e0 3c
       -0.032326326 -0.04642801 0.11900799 0.027455568
000280 45 4c 41 3e af 44 15 3e a0 6a 26 3c 10 9c 9a 3c
       0.18876751 0.14576982 0.010157257 0.018873245
000290 5a 36 fa 3d c2 0c 9c 3d a6 a8 91 bd 19 80 c4 bd
       0.12217398 0.07619621 -0.07112245 -0.09594745
0002a0 d4 ad 54 bd aa eb 95 bd fc 6e 12 bd 45 29 12 be
       -0.051923588 -0.0732034 -0.035750374 -0.14273556
0002b0 de 75 05 be d4 c4 69 3d 7d fe 3a be 00 a4 98 ba
       -0.13033244 0.057072476 -0.18261142 -0.0011645555
0002c0 03 e0 23 3e fb 26 13 3e 76 90 0b be 1a d6 b3 bd
       0.16003422 0.14370339 -0.13629326 -0.08781071
0002d0 30 5b 02 be 70 4a 68 bd 00 a0 c1 3a 3e a9 fc bd
       -0.12730098 -0.056711614 0.0014772415 -0.12336968
0002e0 c2 78 e3 3d e8 d5 5c be 3e ce c5 3d a7 f4 4f 3e
       0.11107017 -0.21565974 0.09658478 0.20308171
0002f0 b0 77 b1 bc 40 a3 bb bd 60 6e 71 3c 5e c5 d1 bd
       -0.021663517 -0.09161997 0.014735788 -0.10242723
000300 b7 f7 35 be 80 6f 7b bd fa e3 8d bd d7 17 33 3e
       -0.17770277 -0.06138563 -0.06928249 0.17489563
000310 34 bf 36 bd 8a 09 88 3d dc f4 1b bd 18 9e 84 bc
       -0.04461594 0.066424444 -0.038075313 -0.016188666
000320 f4 c0 14 bd bf cc 10 3e 0f 0e 1e be ba a4 8e 3d
       -0.036316827 0.14140604 -0.1543505 0.06965013
000330 9e 30 32 be 10 ad f2 bd 15 7a ee bd 3a 4a ee 3d
       -0.17401358 -0.11849415 -0.11644379 0.11635251
000340 97 26 40 3e 9e e1 a3 3d 3c 5f 76 3d 74 6d 3a 3d
       0.18764721 0.080020174 0.060149416 0.04551454
000350 dd 03 3e 3e 6e c4 cb 3d 7c 25 7b bd d0 dd 05 bd
       0.18556161 0.09949575 -0.061315045 -0.03268224
000360 c0 e9 7f 3c 83 1c 17 3e fd 57 fa bd 9f ca 37 3e
       0.015619695 0.1475697 -0.12223814 0.17948388
000370 04 a8 2f 3d 04 41 66 bd 84 e3 b4 bd 40 5b 13 bd
       0.04288484 -0.056214347 -0.08832458 -0.035975695
000380 1e 82 aa 3d 50 1c 4e 3c 70 19 1f bd af 1d 27 3e
       0.08325599 0.012579992 -0.03884262 0.16319917
000390 d1 bd 27 3e f0 ec 08 bc 37 bd 18 be a1 35 44 3e
       0.16381003 -0.008357272 -0.1491593 0.19161083
0003a0 be 94 b1 3d 34 b6 a0 bd 0f 1a 12 3e bb bf 20 3e
       0.086709484 -0.078472525 0.14267753 0.1569814
0003b0 6d f0 2c 3e 4e 76 e3 3d 3f f9 3c be 86 68 e0 3d
       0.1688859 0.11106549 -0.18454455 0.10957436
0003c0 6c 85 f9 bd 54 e2 48 3d a0 5b 04 bd 68 6c f8 bc
       -0.12183651 0.04904397 -0.032313943 -0.03032513
0003d0 55 bd 31 3e a0 69 91 3c 30 39 09 be 09 e4 d7 bd
       0.1735738 0.017750561 -0.13400722 -0.10541541
0003e0 6a bd 8a 3d e0 25 91 3b 06 b5 eb bd 14 a0 43 be
       0.06774409 0.004429564 -0.11509137 -0.19104034
0003f0 0a 4d 2a be 68 6a ed bd f0 1a b2 bd 78 53 59 be
       -0.1663095 -0.11592561 -0.08696544 -0.21223247

eiconvOUT_layers.0.transform_h.weight f4 [64, 139]
000000 c2 7a c1 bd f6 b6 9e 3d 25 1e 5b bd 9c e3 1e 3e
       -0.09447242 0.07749741 -0.053495545 0.15516514
000010 48 ee 5e bd 39 92 87 3d 07 02 11 3e 39 eb 6d 3c
       -0.05442646 0.06619687 0.1416093 0.0145214135
000020 ce a9 b2 3b 7b dc a6 bd 20 b2 00 bd fd 40 a0 bd
       0.005452371 -0.08147522 -0.031419873 -0.078248955
000030 51 c8 4c 3b 52 fa 2b 3d b1 7c cc 3d 82 83 a1 3d
       0.0031247328 0.04198677 0.099847205 0.07886411
000040 fe 34 0f bd 3b 3c b9 bd 43 2c 00 bc f1 00 55 bd
       -0.034962647 -0.09044691 -0.007823053 -0.05200285
000050 19 3e d8 bc 6f b2 c6 3d 85 db e2 bb da d3 98 bd
       -0.026396798 0.09702002 -0.0069231414 -0.074622825
000060 36 99 db bd 28 e0 f9 bb d5 c0 e7 3c 1d a3 e5 3d
       -0.10722582 -0.0076255985 0.028290192 0.11212752
000070 cd 1b 00 bc 02 15 0b 3e 2d cf 62 bd 1a 27 93 3d
       -0.007819128 0.13582233 -0.05537336 0.071851924
000080 e0 29 3a 3d 5b 5c 70 bc 67 63 23 3d 03 df 89 ba
       0.04545009 -0.014670457 0.03988972 -0.0010518733
000090 95 56 9b 3d 41 f7 1e 3e 91 c2 9b bd 80 65 13 3d
       0.075848736 0.15524007 -0.0760547 0.03598547
0000a0 09 79 07 3e e8 0d 7a 3d d3 a4 ec bd 95 56 1e bd
       0.13229765 0.06104842 -0.11554875 -0.03865679
0000b0 7a fb 1e bd 09 30 85 bd da 1d 2c 3d b8 a7 2b 3c
       -0.038814045 -0.065033026 0.042020656 0.010476999
0000c0 37 03 d7 3d 76 d7 d1 bb d8 87 d9 bc 74 ce a2 bd
       0.1049866 -0.006403859 -0.026554033 -0.07949534
0000d0 ca 00 bd bd d1 86 ea 3d 25 b3 23 3e 0a b9 ea 3b
       -0.09228666 0.114514954 0.15986307 0.0071631717
0000e0 70 8b c6 3d 57 49 8b bc b7 ac 2c bd eb 30 21 be
       0.09694564 -0.017002745 -0.0421569 -0.15741317
0000f0 75 28 8c bd b6 6c 5b 3d 1e 97 1a bd fa 5a ce 3d
       -0.06843654 0.05357047 -0.037741773 0.10075946
000100 cd 8b 9e bc 8e fb 2b 3d e3 4f 09 3b dd a4 f2 38
       -0.019353772 0.041987948 0.0020952157 0.000115701674
000110 e1 01 25 3c 8e 3e 0c 3d 19 87 66 bc 33 7d 3b 3b
       0.010071249 0.034239344 -0.014070296 0.002860856
000120 b5 8a 7e bd 33 64 5d 3d 14 66 7c bc bb 70 4a 3b
       -0.062144 0.054050636 -0.015405197 0.0030889947
000130 38 5d c6 3a c4 e5 25 3c 3a ce c6 3c 4b 43 33 bc
       0.0015133983 0.010125581 0.024268258 -0.010941337
000140 0a 53 71 3d 40 35 7f bd 84 a4 2c 3c 26 ed 9c 3c
       0.058917083 -0.062306643 0.01053727 0.01915605
000150 cf 75 ca bc 86 62 7c bd 90 98 a7 bb 8f bd 79 bd
       -0.024714379 -0.061617397 -0.0051146224 -0.060971793
000160 7c b6 cd bb bf 19 58 3a 9d 80 48 3d ff 48 d1 3b
       -0.0062778573 0.00082435826 0.04895078 0.0063868756
000170 65 8c 90 bd 74 9d 89 3c e5 1c 80 3d 7b fc 0b 3d
       -0.07058028 0.016798712 0.06255511 0.03417633
000180 db 1c 56 bc e8 69 77 bd 81 61 32 bc cc a0 51 3d
       -0.013068403 -0.060403734 -0.010887505 0.05117874
000190 b9 86 d2 3c b3 f0 0b 3d 23 69 18 bd 8f b6 b8 bc
       0.025699006 0.034165096 -0.03720964 -0.022547988
0001a0 80 2a 9a 3c d6 f7 1f bd e0 9c c1 bc 6e 7a 9a bd
       0.018819094 -0.039054714 -0.023634374 -0.07542883
0001b0 70 fc af bd 28 38 7e bd ef ed a5 bc 08 2d 09 bd
       -0.085930705 -0.062065274 -0.020255057 -0.03349021
0001c0 b7 95 8a bb d8 e0 06 3d 78 53 8f 3c 00 78 22 bc
       -0.004229273 0.03292927 0.017495856 -0.009916306
0001d0 ee 2f 52 3b 28 ad a3 3c a9 62 20 bd 5a d1 e9 3d
       0.0032072025 0.019980028 -0.03915659 0.11416884
0001e0 0c ab ea 3d 28 3c 55 3d ab 45 8f 3c 0e 0e 81 3c
       0.11458406 0.052059323 0.017489275 0.015753772
0001f0 fd 4f 1e 3b 8c 88 9f bd eb a2 8b ba 7b f2 06 3d
       0.0024156563 -0.07789716 -0.0010653412 0.03294609
000200 ba 90 a6 bc 2c d1 3b 3c 04 f6 77 3c a9 0e 18 3d
       -0.020332683 0.011463445 0.015134338 0.037123356
000210 e4 8e 59 3e 5a 96 fd bd aa c4 4d 3d 5c 7d 24 bc
       0.21245915 -0.12382193 0.05023638 -0.010039654
000220 b7 ea 46 bb e8 9f 3e 3c e8 7c 1d bd 2c 50 01 3b
       -0.0030352303 0.011634804 -0.038449198 0.0019731624
000230 1b f5 f7 bc 4c 98 90 3d 80 28 be bd 13 2f 13 bd
       -0.030268243 0.07060298 -0.092850685 -0.035933565
000240 08 d4 43 3d f6 f0 49 bd 1e f1 05 3d 75 83 bd bc
       0.04780963 -0.049302064 0.03270065 -0.023133973
000250 05 5d c7 bc c9 64 2b bd b7 7a 31 3d a1 e2 2a 3d
       -0.024336347 -0.041844163 0.04332992 0.041720036
000260 9f 07 5b 3d 09 bd 71 bd f2 f1 f3 3b 4c 88 b6 3d
       0.053474065 -0.05901817 0.0074446136 0.08912715
000270 df c0 27 bd 78 ea a7 bd fd 86 79 3d 7f 1e fd bc
       -0.04095542 -0.08199018 0.06091975 -0.03089833
000280 01 fc 3c 3d f8 93 da bd d0 e4 ea bc 58 6f 7d 3d
       0.046138767 -0.10672754 -0.02867356 0.061873764
000290 d3 b2 92 3b ce 71 3b bd 2e 9a 80 3d 1c 3a 22 bd
       0.004476884 -0.04576283 0.062794074 -0.0396062
0002a0 d6 68 18 3d 6f 8a 54 3c b7 cd 6f 3b a1 17 b8 bd
       0.037209354 0.012972458 0.0036591121 -0.08988882
0002b0 d5 c3 86 bd 55 ff 16 be 83 3d 74 3d 28 38 38 3c
       -0.06580321 -0.14745839 0.059628975 0.011243857
0002c0 a4 48 41 bd d5 7b c5 3d f6 5b 70 3d 35 d5 89 3d
       -0.047188416 0.0964276 0.05868145 0.06730119
0002d0 21 39 21 bb f4 c3 a7 bb b0 84 2e bd 5b e0 81 bd
       -0.0024600702 -0.005119795 -0.04260701 -0.063416205
0002e0 5f 05 b5 bc 65 91 4c bd 39 83 e0 bb 55 72 d3 bd
       -0.022097288 -0.049943347 -0.0068515805 -0.103245415
0002f0 cf 10 6b 3c 71 12 aa 3d 40 a6 26 3d 66 13 df bc
       0.014347269 0.08304299 0.040685892 -0.02723093
000300 c4 b1 73 bd ba 58 bc bc 28 cf e7 bd 49 26 c6 bc
       -0.059495702 -0.022991527 -0.11318809 -0.024188178
000310 f4 dd fe bc b6 93 10 bd 07 5a 55 bd d0 8b 94 3d
       -0.031111695 -0.035297118 -0.05208781 0.072532296
000320 d1 5a c6 bc 47 23 c7 bd 79 d2 a0 bd bb ed 69 3c
       -0.024213227 -0.097235255 -0.078526445 0.014277871
000330 bf ac 89 3d 6c 16 09 bd c1 95 b5 bc 0f c2 be bc
       0.06722402 -0.03346865 -0.022166135 -0.023285894
000340 00 ca f4 bc 88 57 40 3d 32 4f 67 3d 47 6a e5 3c
       -0.029881477 0.046958476 0.05647201 0.028004779
000350 e2 b0 b3 bc 45 38 3d bc 7c 2d 80 bc 16 ca e1 3b
       -0.02193493 -0.01154906 -0.015646689 0.0068905456
000360 1f 91 33 bb 3c a3 10 bd 45 d3 f6 bc 07 35 7b bd
       -0.0027399731 -0.035311922 -0.030130038 -0.061329868
000370 c6 e2 6d 3c 3c 8e 13 bd ea ab 00 bd 8b f5 41 3d
       0.014519399 -0.036024317 -0.03141395 0.04735331
000380 12 bc 24 bd ff e8 5a 3c 01 c6 a0 ba c3 95 88 3c
       -0.04021842 0.013361215 -0.0012266041 0.016672974
000390 5f 86 40 bd 2b 71 77 bc 55 11 92 3c 94 fe 0b 3d
       -0.047003146 -0.015102665 0.01783053 0.03417833
0003a0 81 b2 5d 3d 00 a8 26 3c 96 61 28 bd 00 b6 f5 bc
       0.054125313 0.01017189 -0.04110869 -0.02999401
0003b0 62 0e 67 3d ef 7f a9 3d 20 14 d0 3d 4f 0e 1c bd
       0.0564102 0.082763545 0.101600885 -0.038099583
0003c0 f5 7b af 3d 1d 29 53 3c 12 5a c2 3c 7d 85 b8 3d
       0.08568565 0.01288822 0.02372459 0.09009836
0003d0 c2 99 0a bc 59 ea af bc ee bd 34 3c 1b 77 18 bc
       -0.00845951 -0.02147405 0.011031611 -0.009305741
0003e0 66 64 49 3c 1f a2 92 bd e4 7e 17 3d 6a 25 ba bc
       0.012292003 -0.071598284 0.036986247 -0.022722919
0003f0 e0 b7 97 3a 99 26 79 3a 9c 30 c3 3c ad b1 42 3a
       0.0011575185 0.00095043477 0.02382689 0.00074269884

eiconvOUT_layers.0.Rainfall_in.weight f4 [128, 214]
000000 87 04 d5 3c 0d c7 f5 bc 52 fa b2 bc e4 b0 ad bc
       0.026003135 -0.030002141 -0.021847878 -0.021202512
000010 f8 e5 44 3d 30 f5 5c 3d 00 28 59 3c 3e 4d 26 3d
       0.048070878 0.053944767 0.013254166 0.040601008
000020 5f 3a 95 3d dd bc ce 3c 85 b8 be 3a 8c e3 1d 3d
       0.07286524 0.025236541 0.0014550841 0.038547084
000030 b9 0b 48 3d 50 c8 3a bd ad 75 24 bd ed 45 5c bc
       0.048839305 -0.04560119 -0.040151287 -0.013444406
000040 e6 a2 3e bd 6b e7 73 bd ff bc 89 bd d7 c7 c1 bb
       -0.04654207 -0.05954687 -0.06725501 -0.0059137153
000050 54 38 ad 3b 76 25 b3 3c cc 78 c9 3c b9 d2 62 3d
       0.005286256 0.021868449 0.024593733 0.055376742
000060 23 c8 74 3a 35 16 31 bd 33 b2 80 bd 04 5f 02 bc
       0.0009337684 -0.04323407 -0.06283989 -0.007957224
000070 37 1c 88 3c 3f bb b6 bc 70 00 25 bd ec 92 16 3d
       0.016615016 -0.022306083 -0.04028362 0.03676121
000080 3c 15 e6 3c 75 58 de 3c 39 36 3d 3d 37 67 9f bc
       0.028086297 0.027141789 0.04619429 -0.019458396
000090 92 3b 0b bd 7e d4 34 bb ae 10 81 3d 45 79 02 bd
       -0.033992358 -0.0027592476 0.063020095 -0.031853933
0000a0 26 91 0c 3b a3 03 48 bd d0 ee cb bc b2 1a f5 3a
       0.002144882 -0.048831593 -0.024894148 0.0018699972
0000b0 12 84 b7 bc 98 a8 26 bd ef de b9 bc 17 3e 8c bc
       -0.022401843 -0.040688127 -0.02268931 -0.01711945
0000c0 c2 fd 63 bc c3 60 4f bc b6 e0 95 bc a8 09 8a 3c
       -0.013915481 -0.012657347 -0.018295627 0.016850308
0000d0 c4 ba 9e bd ca f2 bb 3d db 82 4d bd 10 d4 8d 3c
       -0.077504665 0.09177168 -0.05017362 0.017313033
0000e0 5b b9 e3 3c d4 f5 05 3c c4 c0 9f 3b 6d c3 a6 3c
       0.027798345 0.008176286 0.0048752744 0.020356858
0000f0 fb 8e 88 3c b1 66 4b bd f7 98 0a 3d 63 f4 2b 3d
       0.01666974 -0.04965848 0.033837285 0.041981112
000100 70 21 ef bc 29 72 62 3d 4c be 44 3d 4f bd f8 bc
       -0.029190749 0.055284653 0.048033044 -0.030363707
000110 7c aa 13 bc 30 ab ff 3c 78 d5 75 3d f5 d8 14 bd
       -0.009012815 0.031209558 0.060018033 -0.03633972
000120 c2 c0 13 bd da f8 2e 3c d7 e7 5d bc c7 70 1b bc
       -0.0360725 0.010679448 -0.013544044 -0.009487337
000130 a4 76 14 3d 8c 32 4c 3d a3 e5 e0 bb a0 7f 87 3d
       0.036245957 0.049852893 -0.0068633123 0.066161394
000140 18 dd 2a 3d e8 92 8b 3d 34 e2 e6 bc 6b 55 e2 bb
       0.041714758 0.068151295 -0.028184034 -0.0069071553
000150 a5 62 76 3c 92 e8 83 3c df fd 4e bd e7 b3 75 3d
       0.015038167 0.01610211 -0.05053508 0.05998602
000160 18 fe 18 3c 77 2d 0c 3c 2f 4c 8a bc e3 d5 d6 3c
       0.009337924 0.008555762 -0.01688203 0.026225036
000170 74 b5 1d bd 01 06 c2 3d 09 0f 03 3d 40 6b 58 bd
       -0.038503125 0.094738014 0.03199676 -0.052836657
000180 ef 87 93 3c 49 af ab bc ff 01 01 be 88 c2 8e bd
       0.018009154 -0.020957606 -0.12598418 -0.06970698
000190 e8 7f 88 ba 93 39 07 3d 80 de 5c bd 14 5e 1e bd
       -0.0010414096 0.03301389 -0.05392313 -0.03866394
0001a0 44 8b ca 3c 80 24 5f bc a1 6a 89 3d 5f 34 3f bd
       0.02472461 -0.013619542 0.06709791 -0.046680804
0001b0 89 01 00 3d 56 f6 13 3d 80 d4 c7 3d 45 69 6f 3d
       0.031251464 0.036123596 0.09757328 0.058450002
0001c0 a8 9d 4c 3c 66 a1 9f bc a3 e2 22 ba 35 a9 cb ba
       0.01248876 -0.01948614 -0.0006213581 -0.0015538099
0001d0 f7 3f 93 bb 00 36 07 3c 9c c1 67 bc ba 15 23 3d
       -0.004493709 0.008252621 -0.014145281 0.039815642
0001e0 9d 1c 73 bc 82 f9 9e bc 7e 8f b9 bd e1 0d 25 3c
       -0.014838365 -0.019406084 -0.09060572 0.01007411
0001f0 0a ba ab bc 2f 92 9d bc 9e 2b 77 bb 1c fe df bc
       -0.020962734 -0.019234745 -0.0037715207 -0.027342848
000200 c7 dc 4b ba 34 8d 93 3b 20 57 ad 3b 6b 51 e3 b7
       -0.0007776734 0.0045029167 0.005289927 -2.7098422e-05
000210 4c 48 d6 3c b6 06 6f 3c 0d b4 b4 3d 4c a6 e0 ba
       0.02615752 0.014589002 0.088234045 -0.0017139404
000220 f8 bd a7 bc 97 79 08 bc fd d7 44 bb a8 33 2b bd
       -0.020476326 -0.0083297705 -0.0030035966 -0.04179731
000230 8f 4c 24 3b 47 1f 4f bd 2f ef 53 3d 94 76 10 3d
       0.0025070047 -0.050566938 0.051741775 0.035269335
000240 e8 a0 dd 3c bb 05 bb bc 9a 59 51 3d 18 4f 1c bd
       0.027054265 -0.022829881 0.05111084 -0.038161367
000250 05 ec a7 bc c7 60 4b bc 20 e8 1f bd 8b 8f 26 bc
       -0.020498285 -0.01241321 -0.03903973 -0.010166059
000260 a4 41 45 bb b9 61 ab bb fc 15 93 3b 57 ca 09 3c
       -0.003009894 -0.0052301553 0.0044887047 0.008410058
000270 b8 7f 36 ba e3 ce 7b b9 9e 7c 34 3c 72 be ea bc
       -0.00069617806 -0.00024014297 0.011016039 -0.028655265
000280 5e 96 aa bc a3 fe 47 3c 87 96 81 bc 3d 8b 48 bc
       -0.020823654 0.012206706 -0.015818847 -0.012240228
000290 71 00 4d bc 42 0d 91 3b 45 2d d2 3c c1 5f 2c bd
       -0.012512312 0.0044266293 0.025656352 -0.042083506
0002a0 6c 7e e8 bc b9 7c 67 bd eb f5 03 3c 11 67 fe bc
       -0.028380595 -0.05651543 0.008054237 -0.031055005
0002b0 53 7c 06 3c 93 36 92 3d 5a 2a 5e 3d 8e 87 9a bc
       0.008208352 0.071393155 0.05423961 -0.018863466
0002c0 2a dc 7e bc 36 ce ed 3c eb e8 6f bc ec ba 8c 3c
       -0.015555421 0.029028993 -0.014642934 0.017178975
0002d0 08 4b 54 bc bc c7 33 ba ef 64 2c bc 46 65 39 3c
       -0.012957342 -0.0006858071 -0.010522111 0.011315649
0002e0 fe 4b 34 3b bd 76 ce bc 31 85 06 3d 97 24 36 ba
       0.0027511115 -0.025203103 0.032841865 -0.00069482013
0002f0 5e fb 05 3d 29 56 f4 ba 2e 33 4b 3a 7c 15 14 bd
       0.032710426 -0.00186414 0.0007751462 -0.0361533
000300 6e d8 f3 bc 41 21 52 bc ef c0 4f bd d8 22 97 bc
       -0.029766288 -0.012825311 -0.050721105 -0.018449232
000310 4a 20 49 3d 1d c0 a1 3b 26 0b 81 bd be a2 75 3b
       0.04910306 0.0049362318 -0.063009545 0.0037481035
000320 64 62 f0 3c d6 6f c7 3c df af 85 bb 38 b6 f9 bb
       0.029343791 0.02434532 -0.0040798034 -0.007620599
000330 b4 60 a3 bb 01 bd 83 bc e2 e3 d9 bc bc b6 a6 bc
       -0.004985893 -0.016081335 -0.02659792 -0.020350806
000340 a1 ae 6e 3b e7 fc 9e bd b8 df 6b bb 36 83 09 3c
       0.0036420005 -0.07763081 -0.00359915 0.0083930995
000350 8a be 8a 3d 79 21 14 3d 90 be 74 3d e7 7f ba 3c
       0.06774624 0.036164735 0.059752047 0.022766067
000360 80 1a 1d bd ba 21 0a bd 3d b4 59 3d 75 cb 33 bd
       -0.03835535 -0.03372357 0.053150404 -0.043895204
000370 4e 78 27 bc f1 3f 38 3d ef 99 57 bd 51 6f b4 3c
       -0.010221554 0.044982854 -0.052637037 0.022025736
000380 77 df a8 bc a4 8e 61 bc b2 ff 4a 3d 77 88 4e bd
       -0.020614369 -0.013766918 0.049560256 -0.05042311
000390 ce 9f 1b bd d9 8b 3d 3d 33 9e e4 bc 45 f3 9c bb
       -0.0379942 0.046275947 -0.027907467 -0.004789742
0003a0 89 e3 3a 3d 8d e7 7b 3d 31 1b e9 bc a8 d3 5c bc
       0.04562715 0.06150012 -0.028455349 -0.013478197
0003b0 45 5a 46 bc 24 64 0a 3d 53 c9 08 3d 3f 7b 38 bd
       -0.012106483 0.033786908 0.033395123 -0.04503941
0003c0 f4 d2 67 3c 1b a1 cd bb c4 34 17 bd e7 aa 5f bd
       0.014149416 -0.006275309 -0.036915556 -0.054606345
0003d0 46 55 41 bd f9 a8 46 bd a6 3f f0 bc 07 93 1e bd
       -0.047200464 -0.04850099 -0.029327225 -0.038714435
0003e0 b6 50 31 bd 58 d1 0e 3d bd 3b 90 bb 64 df 06 bd
       -0.043289863 0.034867615 -0.0044016526 -0.032927886
0003f0 b3 0e a0 3c 95 73 d5 b9 b4 c9 00 bd c6 86 5d bd
       0.01953826 -0.0004071264 -0.03144236 -0.054083608

eiconvOUT_layers.0.Rainfall_out.weight f4 [1, 128]
000000 b2 6b 95 bc a5 67 8b 3d b7 7e 54 39 45 6c 95 3d
       -0.01823983 0.06806878 0.000202651 0.072960414
000010 a7 7b 15 3d 4c 2e c1 3c 24 a4 30 bd a3 92 b8 3d
       0.036494877 0.023581646 -0.043125287 0.09012344
000020 d5 41 3d 3d a5 49 d7 bd a3 df 9b 3d e2 ab 8f 3d
       0.04620536 -0.105120935 0.07611015 0.07015206
000030 ed ac 9f 3c 8b 17 f4 bd 5c 44 30 bd 6c fa 4f b9
       0.019491637 -0.11918553 -0.043033943 -0.00019834348
000040 99 7c 77 b9 48 05 a5 3c 0a 54 3a bd f0 09 b6 3d
       -0.00023602172 0.02014412 -0.045490302 0.08888614
000050 a7 90 af bc b4 87 ba bc 6c 1b 51 3d 90 3d 82 bd
       -0.02143128 -0.022769786 0.051051542 -0.06359398
000060 aa 1d a3 3d 4c e1 85 3d 24 b5 92 3d 9a e9 4e 3a
       0.07964642 0.065371126 0.07163456 0.0007893086
000070 5b be 92 bd c6 8c a1 3d 57 23 a8 38 74 45 7e 3d
       -0.07165214 0.078881785 8.017447e-05 0.062077954
000080 73 ab e7 bd 0c f0 c4 b9 6e fb 05 3d 3a 4e e6 38
       -0.11311998 -0.00037562882 0.032710485 0.000109818255
000090 59 71 9a bd 75 75 6c bd 44 e8 e2 3d 83 11 9f bd
       -0.075411506 -0.057729203 0.110794574 -0.07767012
0000a0 29 e9 52 3a ba ef f9 ba 1c 0d 9b bc 54 09 21 bd
       0.0008045608 -0.0019068636 -0.01892715 -0.039315537
0000b0 ad 59 a0 bc cf fc 0f 3d f9 86 cf 3d ab 46 ef 3c
       -0.01957401 0.035153206 0.10133166 0.029208502
0000c0 bb 07 9b bc 3a 5a 44 39 7a ec 07 be 9d 85 a9 bd
       -0.018924585 0.00018725629 -0.13273802 -0.08277438
0000d0 5d 6f 05 be 9e 9f ab 3d 9d 8c 9b bd 71 ca ce 37
       -0.13030763 0.08380054 -0.07595179 2.4651383e-05
0000e0 81 a5 f7 bc f7 9f bf b8 ba e1 0c bd ec 08 a5 3c
       -0.030230286 -9.1373855e-05 -0.034394957 0.020145856
0000f0 21 55 97 3a fa 09 3a bc d5 7f 47 3b 5a e7 05 bd
       0.0011545756 -0.011354918 0.0030441184 -0.032691337
000100 00 05 ce 3d dc f9 14 3c 9c 01 0c 3d 67 36 15 bc
       0.100595474 0.009092774 0.034181222 -0.009107209
000110 17 78 78 b9 50 7a b4 bd 16 8d 62 3d 98 d7 66 b7
       -0.0002369586 -0.08812392 0.05531033 -1.3759265e-05
000120 e9 d5 ad bd 15 66 29 bd 24 23 e5 b9 b1 b4 96 bd
       -0.08488066 -0.04135712 -0.00043704465 -0.07358683
000130 d3 cd f4 3b df 0f f7 bd 15 95 0f 3e 00 49 e9 bd
       0.007470825 -0.12063574 0.14021714 -0.11390877
000140 50 44 89 bd cc b6 49 39 e7 ab 4b bd fd 27 7b bd
       -0.06702483 0.00019236951 -0.049724486 -0.061317433
000150 9e 75 c6 bc cb 63 f3 3b ab 45 a7 b7 61 19 a1 bc
       -0.024226006 0.0074276677 -1.9940393e-05 -0.019665422
000160 d6 2a 82 bd ab 89 d9 37 3d 1e 29 bd 5b a7 5e 3d
       -0.063558266 2.5932522e-05 -0.041288603 0.05435882
000170 ee fb dc bd 61 ff 9f bd 1d 41 c9 3c d3 09 e7 bc
       -0.10790239 -0.078123815 0.024567181 -0.028202927
000180 aa c7 82 3d 36 e8 04 3e b6 70 e0 bd 9a cf bb 3d
       0.06385739 0.12979206 -0.10958998 0.09170456
000190 6e 32 32 3d 96 55 88 bc e6 5b ab b7 9e 8c 23 bb
       0.043505125 -0.016642373 -2.0427582e-05 -0.002495564
0001a0 36 a1 35 38 32 38 ea bd bc fb 42 bd dc c3 9f 3d
       4.3303902e-05 -0.114365 -0.047603354 0.07801029
0001b0 e3 c4 09 3d 39 62 ec b9 93 90 96 bd 49 a3 bc 3d
       0.03363503 -0.0004508661 -0.07351794 0.09210832
0001c0 d3 4a 1f 3e 78 e6 da bc 47 bb dd bd 5d 39 cf bd
       0.15555887 -0.026721224 -0.10826736 -0.10118363
0001d0 2c 6d 59 3d 71 36 12 be 5d ae af bc 61 db 85 3d
       0.05308263 -0.1427858 -0.021445448 0.06535984
0001e0 99 ea b5 bd 22 f4 98 b9 2b 70 56 bd ee 4a 1a b9
       -0.088826366 -0.00029173592 -0.052353065 -0.00014714498
0001f0 8d b7 01 be 6d 09 03 3e be cb cd 3c 18 3e 0e b9
       -0.12667675 0.12796564 0.025121566 -0.00013565307

eiconvIN_layers.0.weight0e f4 [75, 64]
000000 8f b8 20 3e 64 85 68 3d cb fd 4a 3e 82 d9 49 be
       0.15695404 0.056767836 0.19823377 -0.19711879
000010 8e b3 c2 3d 84 c6 4d bd 00 b1 f2 bb 9e 9d db 3d
       0.095069036 -0.050238147 -0.007406354 0.107234225
000020 32 15 b6 3d 0a 45 92 3d 90 5f 0b be 8a b5 a7 bd
       0.088907614 0.071420744 -0.13610673 -0.08188923
000030 2c 73 52 3d 40 80 89 bd 4a 65 98 3d 04 cc 81 bd
       0.051379368 -0.06713915 0.07441194 -0.06337741
000040 18 a8 87 bc 0e 43 92 3d fa 1f 80 bd 78 a9 27 3d
       -0.016559646 0.07141696 -0.06256099 0.040933102
000050 5b 17 46 3e be 46 da 3d 30 0d 29 bd 84 69 21 3d
       0.19344847 0.10658024 -0.041272342 0.03940727
000060 22 bb 45 be cc fb 60 3d 2c c4 54 3d e0 0a d8 3c
       -0.19309667 0.054927632 0.051944897 0.026372373
000070 4b 27 18 3e 38 88 94 bc e6 b6 c9 bd e4 23 0a be
       0.14858739 -0.01813136 -0.09849338 -0.13490254
000080 46 18 99 bd ae bd 9d 3d 8c c4 48 be 79 96 2e 3e
       -0.07475333 0.07702194 -0.19606227 0.17049588
000090 34 2a 8c bd 92 b3 cf 3d f9 71 2f 3e 8d f2 08 3e
       -0.06843987 0.10141672 0.17133321 0.13373776
0000a0 80 7e 3f 3b 22 82 8e bd 65 36 54 3e 20 3c 20 bd
       0.0029219687 -0.069584146 0.20723875 -0.03911984
0000b0 b3 35 20 3e e7 b2 35 3e 60 6a 25 3c 80 cd 04 3d
       0.15645485 0.17744027 0.010096163 0.032422543
0000c0 f0 98 31 be 31 65 48 3e 30 69 15 3c 16 62 88 3d
       -0.17343497 0.19569851 0.009119317 0.066593334
0000d0 45 50 0c be ba 56 42 be 2d 20 53 be 09 75 46 be
       -0.13702495 -0.18978396 -0.20617743 -0.19380583
0000e0 4e 93 d6 3d 6c ce 38 bd 80 63 c1 ba 1e f5 43 be
       0.10477315 -0.045118734 -0.0014754385 -0.19136474
0000f0 7d ac c7 bd 50 a6 9c 3c fc 69 55 3d 78 1f 99 3c
       -0.097496964 0.019122273 0.052103028 0.018691763
000100 77 fd 28 3e ef b9 33 3e 62 8a 9e 3d 33 ca 41 3e
       0.16502939 0.17551397 0.07741238 0.18924789
000110 21 fb e2 bd 5f 3a 29 3e d1 df e5 bd e0 8c 63 3c
       -0.11083055 0.16526173 -0.1122433 0.013888568
000120 c2 54 08 be 29 6d 33 be 27 66 0c 3e f6 d8 91 3d
       -0.13313583 -0.1752211 0.13710843 0.0712146
000130 bb 83 ef bd 4b ad 2b 3e 76 3d d9 3d d4 4e 96 bd
       -0.116950475 0.16765325 0.10607426 -0.07339254
000140 e4 c6 15 bd 76 bb d6 3d 00 58 6b 3a 27 e5 4a 3e
       -0.03656663 0.10484974 0.00089776516 0.19813977
000150 57 10 19 3e 2f 2e e2 bd 4d 23 2f be e7 25 2d 3e
       0.1494764 -0.11043965 -0.1710331 0.1690899
000160 aa a8 e1 3d c6 14 b7 3d a4 d5 4e be 79 0d 28 3e
       0.11018498 0.08939509 -0.20198685 0.1641139
000170 bf e8 34 3e 84 4a a3 bd 69 ac 06 3e 46 09 87 bd
       0.1766691 -0.07973197 0.13151707 -0.06593566
000180 38 a2 d8 3c 58 93 b3 3c d9 f9 4c 3e 7e 0c c4 3d
       0.02644454 0.021920845 0.20017184 0.09572695
000190 50 94 86 3c c8 f6 1e be a7 73 33 be a1 47 2e 3e
       0.016428143 -0.15523827 -0.17524587 0.17019512
0001a0 ce fe 21 be 60 34 29 bc c0 d7 9e 3b 22 fc 8d 3d
       -0.15819857 -0.010327429 0.0048474967 0.06932856
0001b0 24 a1 02 3d 12 33 b3 bd 1b e4 53 3e ae ae f5 bd
       0.031891957 -0.08749975 0.20692484 -0.11996208
0001c0 93 b7 4f 3e f6 9c 13 be ff f0 1c be b9 98 1f 3e
       0.20284872 -0.14415345 -0.15326308 0.15585603
0001d0 66 29 a4 3d 59 dc c9 bd 65 a9 48 3e 25 99 05 3e
       0.080157086 -0.09856481 0.19595869 0.13046701
0001e0 25 e8 05 3e 40 56 f2 3c ed f1 05 be 5c 4e be bd
       0.13076837 0.029582143 -0.13080569 -0.092922896
0001f0 e7 8f 3b 3e ef 36 35 3e bb 7e 2c 3e 70 aa 07 be
       0.18316613 0.17696737 0.16845219 -0.1324861
000200 f0 4d b8 bc e4 9e 0f be c6 7e ec bd 14 bb 31 bd
       -0.022498101 -0.14025456 -0.115476176 -0.043391302
000210 26 dc 1a be d0 90 5f bd 83 2b f4 bd 59 a6 26 3e
       -0.15123042 -0.054581463 -0.11922362 0.16274394
000220 b5 6f c8 bd 8f 28 21 3e 1a 6a b2 3d 8f 8f 36 be
       -0.097869314 0.15738128 0.087116435 -0.17828201
000230 fe f4 f3 3d c8 c1 23 be a0 9c 92 3b 08 fe 99 bc
       0.11911963 -0.1599189 0.0044742376 -0.01879789
000240 d0 31 54 be ec f0 2e 3d a8 0c a1 bd 38 13 31 be
       -0.20722127 0.04271023 -0.07863742 -0.17292488
000250 db b8 08 3e b5 19 48 be a6 32 46 be 2a ed f7 3d
       0.13351767 -0.19541056 -0.19355258 0.12105782
000260 95 9a 3d 3e 99 fd 4c 3e 08 66 2e bd 94 87 e8 bd
       0.18516 0.20018615 -0.042577773 -0.113539845
000270 61 02 48 be e0 d6 f7 bc fb f9 4c be 70 bd c0 bc
       -0.19532157 -0.030253828 -0.20017235 -0.02352783
000280 80 4c 57 3c 76 1a 8c 3d eb 2c 2c 3e 8a 99 0f be
       0.013140798 0.068409845 0.1681401 -0.14023414
000290 be 7e 99 3d 5c 73 63 3d 36 16 cd 3d 7c 34 77 bd
       0.07494877 0.055529937 0.10014002 -0.060352787
0002a0 a4 7c 1b be 8e 4a ee 3d 25 5d 0a be 9d 5b af bd
       -0.15184265 0.11635314 -0.13512094 -0.08562396
0002b0 36 6f 14 be 3d ff 22 be 58 a1 b4 3c 2f fd 18 3e
       -0.14495549 -0.15917678 0.022049591 0.14940332
0002c0 20 fa ec bb db 35 37 be 64 57 17 be 25 cd 1d 3e
       -0.0072319657 -0.17891638 -0.1477943 0.15410288
0002d0 80 8f 35 3b 7c ee 62 3d 62 93 df 3d 01 d2 43 be
       0.002770394 0.055403218 0.10916783 -0.19123079
0002e0 37 45 e9 bd 14 55 3b be bc 57 1b 3d ce 67 06 be
       -0.11390155 -0.18294173 0.037925467 -0.13125536
0002f0 44 63 78 3d a6 28 8d 3d 7a a1 c6 3d 71 13 4c be
       0.060641542 0.06892519 0.09698768 -0.19929291
000300 fe 45 a4 3d 8b ee 44 be f2 94 e4 3d 50 3a cf bc
       0.080211625 -0.19231622 0.111612216 -0.02529636
000310 f0 d3 05 bd 80 52 2f be 8b e0 4e be ef 72 54 3e
       -0.032672822 -0.17121315 -0.20202844 0.20746969
000320 ed 31 3b be 1c 9b 61 3d 4e 2a d9 3d c5 fb 29 3e
       -0.18280764 0.055079564 0.10603772 0.16599949
000330 36 72 f0 3d 1c f7 65 3d 60 91 82 3b e0 20 fe bb
       0.11740534 0.056143865 0.003984615 -0.007755384
000340 40 01 d7 bc 65 80 f3 bd 20 69 e0 3c c2 7c 82 3d
       -0.026245713 -0.11889724 0.027393878 0.06371452
000350 0c ea 40 3d aa 20 f0 3d 10 99 96 bc e0 e9 48 be
       0.047098204 0.1172498 -0.018383533 -0.19620466
000360 fa 38 aa 3d 88 63 20 3d b1 0a 45 3e 33 7b 46 3e
       0.08311649 0.03915742 0.1924236 0.19382934
000370 eb 3c 18 3e 74 1d 52 3d 64 37 79 3d c9 ab 11 3e
       0.14866988 0.05129762 0.06084384 0.14225687
000380 2b fa 2d 3e 14 a9 3a 3d f4 89 39 be 80 52 26 3b
       0.16989963 0.0455714 -0.18119031 0.0025378764
000390 2f b3 fd bd 97 8c 4b be 6c 46 5c 3d 2f f9 52 3e
       -0.12387692 -0.1987785 0.053778097 0.20602868
0003a0 8c 74 7d bd 4c 65 3b be 14 8b 4a 3d 10 f6 91 bc
       -0.061878726 -0.1830036 0.04944904 -0.017817527
0003b0 a0 87 ee 3c 20 61 5b bd 41 4e 23 3e d4 92 75 bd
       0.029117405 -0.053559422 0.1594782 -0.05995448
0003c0 11 e9 e1 bd 14 8c 1b be f0 9d 07 be 86 66 d6 3d
       -0.11030782 -0.15190154 -0.13243842 0.104687735
0003d0 38 66 a3 bc fb ca 0f be 7f 7f 50 3e ce fb fc 3d
       -0.019946203 -0.14042275 0.20361136 0.123527154
0003e0 88 54 b7 bd d8 22 10 be 39 2f 17 3e e3 c1 f2 bd
       -0.0895167 -0.14075792 0.14764108 -0.11853387
0003f0 4e b6 d9 3d 02 90 c5 3d 16 c0 a3 3d b2 c1 cc 3d
       0.10630475 0.09646608 0.07995622 0.09997882

eiconvIN_layers.0.weight0h f4 [64, 64]
000000 60 89 a5 3b 48 43 5d bd 18 a9 db bc 40 f8 bd bd
       0.0050517768 -0.054019243 -0.026814029 -0.092758656
000010 0e c3 a5 bd 91 6d 3f 3e d8 ac d8 bd 90 b6 7a 3c
       -0.08093844 0.1869414 -0.10579842 0.015302315
000020 ee 7a cd 3d 46 4b 11 be 2e 3a 80 3d 12 cd e0 3d
       0.100332126 -0.14188871 0.06261097 0.10976614
000030 5e 8a 57 be 11 5b 06 3e 45 90 05 3e ab 38 40 3e
       -0.21048877 0.13120677 0.13043316 0.18771617
000040 02 aa d0 3d e0 7b 22 3c 60 52 be bb 50 9e 4b bc
       0.101886764 0.009917229 -0.0058081597 -0.012427881
000050 d6 fc c7 3d 65 32 11 3e f5 d1 3d 3e 3d da 18 3e
       0.097650215 0.1417938 0.18537124 0.14927001
000060 80 b2 f2 ba ee fb a5 bd 86 24 34 be 00 c5 2c bc
       -0.0018516332 -0.081046924 -0.17592058 -0.010545015
000070 80 01 d2 bc 3f 04 4f be 50 04 93 bc 48 0c 4c be
       -0.02563548 -0.20216464 -0.017946392 -0.1992656
000080 88 e4 22 be 26 bc fa 3d 20 84 f8 bb 20 f2 2b bd
       -0.1590749 0.12242918 -0.00758411 -0.041978955
000090 82 22 a7 3d 18 a9 14 be c8 bc c3 3c b6 21 f4 bd
       0.08160879 -0.14517629 0.023893729 -0.11920492
0000a0 20 6d 23 3c 0c 54 3d be 06 1e f1 3d 9d 3a 58 3e
       0.009974748 -0.18489093 0.11773305 0.21116109
0000b0 66 92 cc 3d 6a 2a e9 3d a7 de 4b 3e e6 b9 19 be
       0.09988861 0.11385043 0.19909154 -0.15012321
0000c0 ea 36 b8 3d b9 8a e6 bd 60 d7 49 3c 7c c8 2a bd
       0.08994849 -0.11256928 0.012319416 -0.041695103
0000d0 08 41 57 be 69 27 39 be a0 17 f4 bb da 1e 1d be
       -0.21020901 -0.1808144 -0.0074491054 -0.153438
0000e0 88 26 5b bd cc ad 09 be 00 b4 2b 3c f0 9b b0 bc
       -0.053503543 -0.13445204 0.010479927 -0.021558732
0000f0 6e 0c 8e bd e4 c3 a4 bd 96 d1 95 3d a3 1b 1c 3e
       -0.069359645 -0.08045176 0.07315366 0.15244918
000100 04 57 c4 bd 8c 9b 04 3d a8 ce f8 3c 8b 2d 14 3e
       -0.095869094 0.032374904 0.030371979 0.14470498
000110 6c 5e 3f 3d b0 79 3a 3c 08 76 5f bd 7c a9 96 bd
       0.046720907 0.011381552 -0.054555923 -0.07356545
000120 c6 9d 36 be 41 2a 48 be 80 80 d0 ba d3 2d 59 3e
       -0.17833623 -0.19547369 -0.0015907437 0.21208887
000130 00 b8 a9 bc 45 4b 56 be 60 97 a1 bc ac 2e 4a 3d
       -0.02071762 -0.2092715 -0.019725502 0.049360916
000140 e4 4c 5d be df fd 2d be 4a be e5 3d cf c6 54 3e
       -0.21611363 -0.16991375 0.112179354 0.20778964
000150 85 3c 51 3e 16 5c bf 3d 83 3a f4 bd 5b 2f 3b be
       0.20433243 0.09343736 -0.11925223 -0.18279783
000160 00 07 cd ba 90 73 61 bd 19 a6 00 3e 15 94 1d 3e
       -0.0015642345 -0.05504185 0.12563361 0.1538852
000170 b0 73 41 be ce f7 b7 3d ad 46 3d 3e 38 fd 6f bd
       -0.18891788 0.08982812 0.18483992 -0.058591098
000180 e8 a6 87 bc f6 db fd 3d aa 31 24 be ea f5 a8 3d
       -0.01655908 0.1239547 -0.1603457 0.082500294
000190 f7 4d 39 3e 00 7c 8d bd ac f6 6b bd 5e 3c f8 3d
       0.18096147 -0.06908417 -0.05760829 0.12120889
0001a0 9e ee 3e be c9 4e 1c 3e 69 8b 1e be 7b 05 37 3e
       -0.18645713 0.15264429 -0.15482868 0.17873184
0001b0 1f 98 4d 3e dc b6 3f 3d a0 71 91 bd 71 d4 2b 3e
       0.20077561 0.046805248 -0.071017504 0.16780259
0001c0 3d 35 03 3e 5f 8d 5c be 04 07 7d 3d a0 d4 b7 bc
       0.12813278 -0.21538304 0.06177427 -0.022440255
0001d0 11 79 2b be cc ce 0c be 0e af f6 3d e0 61 ee bc
       -0.16745402 -0.13750762 0.12045108 -0.029099405
0001e0 00 92 c5 bb 74 e2 66 bd cc 2e 01 be 79 6b 31 be
       -0.0060293674 -0.056368306 -0.12615508 -0.17326154
0001f0 ab 51 2e 3e e0 c0 02 3c bb 63 d5 bd 1c 20 7e 3d
       0.17023341 0.007980555 -0.10419413 0.06204234
000200 58 3a e4 bc 3b d9 16 3e 67 c3 ff bd fb 0a db bd
       -0.027859852 0.14731304 -0.12488442 -0.10695454
000210 60 01 a3 bc 82 7b ab 3d 00 f0 40 b8 5c ec 7b 3d
       -0.019898117 0.083731666 -4.5999885e-05 0.061504707
000220 a0 a4 ee bc ce d2 9b 3d 75 db 08 be dd 95 0a 3e
       -0.029131234 0.07608567 -0.13364966 0.13533731
000230 df 65 31 be a9 0b 25 3e b4 d9 28 3d 99 95 35 be
       -0.17324017 0.16117729 0.041223243 -0.17732848
000240 df fd 36 3e 67 59 02 3e 78 a0 9b 3c 3f 06 03 be
       0.17870282 0.12729417 0.018997416 -0.12795351
000250 68 79 88 3c 86 c4 44 be 40 d0 5e 3b 4a d6 c0 bd
       0.016659454 -0.19215593 0.0033998638 -0.094158724
000260 7a a7 fd 3d cd a5 24 3e 1a 07 f3 bd dc 7a 19 be
       0.12385459 0.16078873 -0.11866589 -0.14988273
000270 58 30 d0 3c 4e 7d 9c 3d 03 61 d5 bd 56 27 c2 3d
       0.025413677 0.076410875 -0.10418894 0.09480159
000280 39 91 0e 3e 0d 97 1a 3e 17 11 30 be de 9d 2c be
       0.13922586 0.15096684 -0.1719402 -0.16857097
000290 9a 4f f1 3d 0c dd 1f 3d 23 7a 3a 3e 64 b4 35 bd
       0.11782761 0.039029166 0.18210654 -0.044361487
0002a0 55 86 39 3e fc c4 bb bd a9 af 41 3e 8f ff 36 3e
       0.1811765 -0.09168431 0.18914665 0.17870925
0002b0 34 86 02 bd bb 28 4b 3e 64 81 7a 3d 8c 14 b9 bd
       -0.031866267 0.19839756 0.061158553 -0.09037122
0002c0 eb 72 44 3e b4 17 44 be 1f 75 58 be cc 92 4c bd
       0.19184463 -0.19149667 -0.21138428 -0.049944684
0002d0 74 21 61 3d 47 51 16 be 60 b7 c6 3b d7 15 4b be
       0.054963544 -0.14679442 0.0060643405 -0.1983255
0002e0 b7 ac e1 bd 86 35 10 be df ee 1f be 6a 94 19 be
       -0.11019271 -0.14082918 -0.15618466 -0.14998022
0002f0 02 ee f6 3d 55 5b 17 3e d0 9f f9 3c c4 d6 d0 bd
       0.12057115 0.14780934 0.030471712 -0.10197213
000300 ee ce 13 be 5a f2 d0 3d 11 04 24 3e da 0c c7 3d
       -0.14434406 0.10202475 0.16017176 0.09719248
000310 d4 76 07 3d e2 5e 85 3d 64 ec 65 bd 72 2a b2 bd
       0.033072308 0.06512238 -0.056133643 -0.08699502
000320 4d a5 e6 bd 52 2f 84 bd a8 d3 40 bd a0 07 4d 3c
       -0.11261997 -0.06454338 -0.04707685 0.012514025
000330 a1 72 5d be d6 cf c0 3d db d6 e1 bd 28 91 36 be
       -0.21625759 0.094146416 -0.110273086 -0.1782881
000340 a8 e1 de bc 59 b1 28 3e 10 44 fb bd 46 97 87 bd
       -0.02720721 0.16473903 -0.12268841 -0.0662065
000350 8d 52 1e be 3c 23 43 3d 26 31 f1 bd 60 5b d1 3c
       -0.15461178 0.047641024 -0.117769524 0.025556266
000360 9a 04 56 be 67 07 da bd 9c 6a 74 bd d2 b8 e4 3d
       -0.20900193 -0.10645943 -0.059671983 0.11168064
000370 e4 5b 1d 3d c4 3b 0c 3d e0 13 e5 3c 8c 9a 33 3d
       0.03841771 0.034236684 0.027963579 0.04384856
000380 e0 37 fc bb a4 35 46 be dd ac 13 be 16 65 8d bd
       -0.0076970905 -0.193564 -0.14421411 -0.06904046
000390 cb 7a 2d 3e ef 3d 4c 3e 63 4c 22 be 98 9c 2d be
       0.16941373 0.19945501 -0.15849452 -0.16954267
0003a0 e4 38 31 be d0 5d c2 3c 27 2b f9 bd 32 3a 18 be
       -0.17306858 0.023726374 -0.12166434 -0.1486595
0003b0 10 8a 53 bd 5c af 3b bd ce fe cb bd f8 73 59 be
       -0.05164534 -0.045821533 -0.099607095 -0.21235645
0003c0 8a bf 92 3d 74 fc 01 3d bf 52 0a 3e 21 8f 24 3e
       0.071654394 0.0317349 0.13508128 0.16070224
0003d0 32 4f c7 3d ac fc d1 bd e7 6b 5b be ce f9 c2 bd
       0.09731902 -0.102532715 -0.2142788 -0.09520303
0003e0 86 2c 3d be e0 ad 6d 3c 00 8b 0f 3a 8f aa 1d 3e
       -0.18474016 0.014506787 0.00054757297 0.15397094
0003f0 3a e7 4c be c7 19 53 3e 1a 2b ae 3d b0 aa 5e bd
       -0.20010081 0.20615302 0.08504315 -0.054362
