models/CompactSTEIConvMSGRAD_OlereluElerelu4_1_9_in2_efeat36+31+4+4new_log2_normal_hidden_64_wMAEnew_classifyS01_adam1e-5.pt (torch, 733463 bytes, 21 tensors)

eiconvOUT_layers.0.weight0e f4 [75, 64]
0	0x3cfcc4c8	0.030855551
1	0xbd6b9c90	-0.057522357
2	0xbd5154dc	-0.05110632
3	0xbd855a6c	-0.06511387
4	0xbe1a8424	-0.1508947
5	0xbe52b853	-0.20578127
6	0xbd7ad3a0	-0.061236978
7	0xbc610b00	-0.013735533
8	0x3d7a4bc4	0.061107412
9	0x3e3e505b	0.1858534
10	0x3dd9367a	0.10606094
11	0x3e2feb8d	0.17179699
12	0xbd8c0cd2	-0.06838383
13	0xbe12c006	-0.14331064
14	0x3cf3a6d0	0.029742628
15	0xbe2701ea	-0.16309324
16	0x3b87a800	0.0041399
17	0xbdd3fa9e	-0.10350536
18	0x3da4841a	0.08033009
19	0x3e0c3bd5	0.13694699
20	0xbc2b51a0	-0.010456473
21	0xbce9f968	-0.028561309
22	0xbd929300	-0.07156944
23	0x3e0b7b19	0.13621177
24	0x3d5a9e1c	0.05337344
25	0xbd6c9168	-0.057755858
26	0xbda16e60	-0.078823805
27	0x3d727a2c	0.059198543
28	0xbe0e63e2	-0.1390529
29	0x3e010759	0.12600459
30	0xbddb834f	-0.107184045
31	0x3d1514d8	0.03639683
32	0xbddc2342	-0.107489124
33	0x3d2efdfc	0.042722687
34	0xbb6716c0	-0.0035261363
35	0x3c01c7b0	0.007921144
36	0xbd2075a8	-0.039174706
37	0x3e0e5963	0.13901286
38	0xbd3cc7f4	-0.046089128
39	0x3e2253e1	0.1585231
40	0x3e2144c5	0.1574889
41	0x3df8a76e	0.1214131
42	0xbdf49312	-0.11942114
43	0x3dbb1e8e	0.09136687
44	0x3e1899bb	0.14902394
45	0xbe31fed1	-0.17382361
46	0xbe4f76d8	-0.20260179
47	0xbdc69fc3	-0.09698441
48	0x3d83f8ee	0.06443964
49	0x3d9b8f26	0.07595663
50	0x3c5f3440	0.013623297
51	0xbcae4df0	-0.021277398
52	0xbdf4cc3e	-0.119530186
53	0x3d874ea6	0.06606798
54	0xbdfa6286	-0.12225823
55	0xbd6e7328	-0.05821529
56	0xbe2b5c6c	-0.16734475
57	0xbc7a4aa0	-0.015276581
58	0x3a432e00	0.0007445514
59	0xbd0c9b98	-0.034328073
60	0xbd9f57f0	-0.077804446
61	0x3e3e08cb	0.18558042
62	0xbdf06974	-0.117388636
63	0xbde17736	-0.11009066
64	0x3e40a7fd	0.18814082
65	0x3e11787f	0.14206122
66	0xbd2c3dac	-0.042051002
67	0x3e3d4927	0.18484937
68	0xbdfec864	-0.12440565
69	0x3d1b69c0	0.037942648
70	0x3ca55fd0	0.020187289
71	0xbe1990c7	-0.14996634
72	0x3ddac1c2	0.106814876
73	0xbd72c654	-0.05927117
74	0xbd34acd4	-0.044110134
75	0x3e3f1451	0.18660094
76	0xbda96ae0	-0.08272338
77	0x3e0991fb	0.13434593
78	0xbdba0087	-0.09082132
79	0xbe243ba4	-0.16038376
80	0x3e4c29d1	0.19937827
81	0x3dfa289a	0.122147754
82	0x3e433ac9	0.19065394
83	0xbd941558	-0.072306335
84	0x3d6876c4	0.05675389
85	0xbd497ed4	-0.04919322
86	0x3bbb1bc0	0.005710095
87	0x3db3f8fa	0.08787723
88	0x3e107f87	0.14111148
89	0x3e272fa7	0.16326772
90	0x3e3c6a4d	0.18399926
91	0xbe138960	-0.14407873
92	0xbd660b98	-0.0561634
93	0x3e4ed4dd	0.20198388
94	0x3de6512a	0.112459496
95	0x3e30c021	0.17260791
96	0x3d4a9bf4	0.049465135
97	0x3e4e55e3	0.2014995
98	0x3c7cdb60	0.015433162
99	0x3dc5f67a	0.09666152
100	0x3e1994ed	0.14998217
101	0x3d6ed4f4	0.058308557
102	0xbd90c528	-0.070688546
103	0xbcfa71b0	-0.030571789
104	0xbce2cd08	-0.027685657
105	0x3e42ae13	0.19011717
106	0xbc6304f0	-0.013856158
107	0xbdc09dd6	-0.09405105
108	0x3e3d4da5	0.1848665
109	0x3e533ea9	0.20629372
110	0x3e0748b3	0.13211326
111	0xbbb09040	-0.0053882897
112	0xbdf37658	-0.11887807
113	0x3e13c35b	0.14429991
114	0xbd2b9da4	-0.041898385
115	0x3e08a5c7	0.13344489
116	0xbe010ea9	-0.12603249
117	0xbe3c7489	-0.1840383
118	0x3c8b87d0	0.017032534
119	0x3e37c569	0.179464
120	0x3e00b969	0.12570728
121	0xbe3824f7	-0.17982851
122	0x3e0e3eb3	0.13891105
123	0xbe25aeed	-0.1618001
124	0xbd742b80	-0.059611797
125	0xbcad70c8	-0.021171942
126	0x3e0f4d85	0.13994415
127	0xbcda6c40	-0.026662946
128	0xbe0aafcc	-0.13543624
129	0xbe1c8bb4	-0.15287668
130	0x3e3a068b	0.18166558
131	0xbd93ce36	-0.07217066
132	0xbe1cf4f8	-0.15327823
133	0xbe006500	-0.12538528
134	0x3c6a5290	0.014301911
135	0x3e4c7fa5	0.19970568
136	0x3d9aa422	0.07550837
137	0xbc3551e0	-0.011066884
138	0x3c089770	0.008336887
139	0x3df55092	0.11978258
140	0xbe046c36	-0.12931904
141	0x3cfc8360	0.030824363
142	0xbe3853d4	-0.18000728
143	0x3de44f42	0.1114793
144	0xbdf8c8a5	-0.12147645
145	0xbc98b7d8	-0.018642351
146	0x3e20f165	0.15717085
147	0xbc97eb88	-0.018544927
148	0x3e3a6189	0.18201269
149	0xbe044112	-0.12915447
150	0xbe24c268	-0.16089785
151	0x3e4effb9	0.20214738
152	0x3dda124a	0.106480196
153	0xbe54a6a0	-0.20766687
154	0xbdcef3e7	-0.101051144
155	0x3de8a296	0.11359136
156	0xbd7a18e4	-0.061058894
157	0xbd065140	-0.03279233
158	0xbe1da791	-0.15395953
159	0x3e48b051	0.1959851
160	0xbe27a2f1	-0.16370751
161	0x3b849d40	0.004047066
162	0x3e470d7f	0.19438742
163	0xbe4f7e60	-0.20263052
164	0x3cd7c0d0	0.026337057
165	0xbca95d30	-0.020674318
166	0x3d9deb2e	0.077108726
167	0x3e21353b	0.15742962
168	0xbdb8ec66	-0.090294644
169	0xbe102fd4	-0.14080745
170	0x3dacabfe	0.084312424
171	0xbe00e0a4	-0.12585694
172	0x3e3e4d3b	0.18584149
173	0x3c867468	0.016412929
174	0x3de4f5d2	0.11179699
175	0xbe090d89	-0.1338407
176	0x3db9c8d2	0.090715066
177	0xbdb14eb2	-0.08657588
178	0x3db8c1ae	0.090213165
179	0xbd87e9a8	-0.06636363
180	0x3e3edddb	0.18639319
181	0xbe2ebbd1	-0.17063834
182	0x3db2ef3a	0.08737035
183	0xbe0a0848	-0.13479722
184	0x3e10eb7b	0.14152329
185	0x3bd34120	0.0064469725
186	0x3e0e84fd	0.13917919
187	0xbe3f9087	-0.18707477
188	0xbdc4446e	-0.095833644
189	0xbd918e16	-0.07107179
190	0xbdca4ce7	-0.09877949
191	0x3e1233df	0.142776
192	0xbe417406	-0.18891916
193	0x3c01b080	0.007915616
194	0x3e542187	0.20715915
195	0xbd6a9310	-0.057269156
196	0x3dbefd9a	0.093257144
197	0xbd8434ea	-0.06455405
198	0xbe0f9998	-0.14023435
199	0xbd896818	-0.067093074
200	0xbd38ef50	-0.0451501
201	0xbe0c5d19	-0.13707389
202	0x3df0c0c2	0.11755516
203	0x3d9e75a2	0.077372804
204	0xbd237634	-0.03990765
205	0x3e526ee3	0.20550112
206	0x3de06eca	0.10958631
207	0xbe14ed88	-0.14543736
208	0x3c9ae0d0	0.018906027
209	0xbd0bb690	-0.034109652
210	0xbdbc2d26	-0.09188299
211	0xbe47b602	-0.19503024
212	0x3e2ef83f	0.17086886
213	0xbdc4fa78	-0.096180856
214	0xbd092eb8	-0.03349182
215	0xbc500000	-0.0126953125
216	0xbe548f41	-0.20757772
217	0x3d95d192	0.07315363
218	0x3e28bd7f	0.16478537
219	0x3e17bd2f	0.14818262
220	0xbd99b572	-0.07505311
221	0xbcdb5b88	-0.026777044
222	0xbe33c948	-0.17557251
223	0x3d697ba4	0.05700268
224	0x3d6b13f4	0.057392076
225	0x3d0019dc	0.03127466
226	0x3e51cb05	0.20487602
227	0xbd818892	-0.06324877
228	0x3c220bc0	0.009890497
229	0x3e330507	0.17482387
230	0xbe007485	-0.12544449
231	0xbdad5555	-0.084635414
232	0x3ce8cd60	0.028418243
233	0x3e0ead91	0.13933398
234	0xbbde0300	-0.00677526
235	0xbdc7ce8d	-0.09756193
236	0xbd81802c	-0.06323275
237	0x3e207607	0.15670024
238	0xbe33ded3	-0.1756547
239	0xbe196a18	-0.14981878
240	0xbe23cf2f	-0.15997003
241	0x3c8f2ff0	0.017478913
242	0x3dc340a2	0.09533812
243	0x3e1f0ad5	0.15531476
244	0xbe2ac331	-0.16676022
245	0xbdfcb8c3	-0.12339928
246	0x3d29d8b0	0.041466415
247	0xbe098a76	-0.13431725
248	0x3e00f0b1	0.12591816
249	0x3dd5e2fa	0.10443683
250	0xbd6fdf50	-0.058562577
251	0xbdb794ab	-0.08963903
252	0xbd0fa97c	-0.035073742
253	0xbe255c68	-0.16148531
254	0x3ddab9ea	0.106799915
255	0xbe4367a0	-0.19082499

eiconvOUT_layers.0.weight0h f4 [64, 64]
0	0xbcfe3dd0	-0.031035334
1	0xbdec24e0	-0.11530471
2	0x3e27e44f	0.16395687
3	0x3cdb90f0	0.02680251
4	0xbdc64dc9	-0.09682805
5	0xbddeabcf	-0.10872614
6	0xbd41b304	-0.047289863
7	0x3e58c2f1	0.21168114
8	0x3d7d14ac	0.061787292
9	0xbddc3989	-0.107531615
10	0xbe49d96f	-0.1971185
11	0xbdf90184	-0.12158492
12	0xbd140128	-0.036133915
13	0x3d8075b6	0.062724516
14	0x3de94966	0.11390953
15	0x3e367bcb	0.17820661
16	0xbd0e92a4	-0.034807816
17	0x3e3d4efb	0.1848716
18	0x3d596f4c	0.053084657
19	0xbbdb28a0	-0.0066881925
20	0x3e00ec2f	0.12590097
21	0xbdf64fda	-0.12026949
22	0x3d9d1452	0.076698914
23	0x3c188c40	0.009310782
24	0xbe31dca2	-0.17369321
25	0x3d832782	0.0640402
26	0x3de8e912	0.1137258
27	0xbe08ca7b	-0.1335849
28	0x3b086380	0.002081126
29	0x3e4af5cf	0.19820331
30	0x3e0d35ed	0.13790102
31	0xbca97030	-0.020683378
32	0x3c97e838	0.018543348
33	0x3e5507e7	0.20803796
34	0x3e32e517	0.17470203
35	0xbd8779aa	-0.066150025
36	0xbd271390	-0.04079014
37	0xbcc78f00	-0.02436018
38	0xbd67134c	-0.056414887
39	0xbdb2e0da	-0.08734293
40	0xbd9d019a	-0.07666321
41	0x3e025f41	0.12731649
42	0xbad69d80	-0.0016373843
43	0xbe43f1c4	-0.19135195
44	0xbdf05028	-0.117340386
45	0xbe1ec3ca	-0.15504375
46	0xbe579acd	-0.21055146
47	0x3dd2f3aa	0.103003815
48	0xbda27c1c	-0.07933828
49	0xbc944130	-0.01809749
50	0xbdefc01d	-0.117065646
51	0xbd0c7698	-0.034292787
52	0xbe319004	-0.17340094
53	0xbdc2df9c	-0.09515306
54	0x3e293e65	0.16527708
55	0xbde47bca	-0.111564234
56	0xbe47ea5f	-0.19522999
57	0xbddc3b72	-0.10753526
58	0x3dcff8fe	0.10154913
59	0x3db7ca0e	0.08974086
60	0xbd165e94	-0.03671129
61	0xbdadcc68	-0.08486253
62	0x3dc4ed66	0.09615593
63	0xbc5e2370	-0.013558254
64	0xbdd0cb89	-0.10195071
65	0xbc724320	-0.014786512
66	0x3cb6b728	0.022304133
67	0x3d5b5634	0.053549007
68	0x3dce50fa	0.10074039
69	0x3e12e835	0.14346392
70	0xbde439c4	-0.111438304
71	0x3c6c04a0	0.0144054
72	0x3e0be3a7	0.13661061
73	0xbd13c7b8	-0.03607914
74	0xbe46575a	-0.1936926
75	0xbe12c1c9	-0.14331736
76	0xbdeaa02e	-0.11456333
77	0xbc282300	-0.010262251
78	0x3daf4a9a	0.08559151
79	0x3df769be	0.120807156
80	0x3e1d3253	0.15351228
81	0xbdcd4e9f	-0.100247614
82	0x3ceb97b0	0.028758854
83	0xbe59653f	-0.21230029
84	0xbe59cf7e	-0.21270558
85	0x3e27b6eb	0.16378371
86	0xbe143e9d	-0.1447701
87	0xbd0cb768	-0.034354597
88	0xbdf744c2	-0.120736614
89	0xbd362e3c	-0.044477686
90	0xbe57e882	-0.21084788
91	0xbd85f53a	-0.06540914
92	0x3de758ee	0.11296259
93	0xbe10f272	-0.14154986
94	0x3d1876bc	0.03722261
95	0xbd7cfd8c	-0.06176524
96	0xbe1ae6f0	-0.15127158
97	0x3e3f1d0b	0.18663423
98	0xbc278ee0	-0.010226935
99	0xbe1e3acd	-0.15452118
100	0xbd44db30	-0.048060596
101	0xbcbea288	-0.02327086
102	0x3e13237b	0.14369003
103	0xbe48d9d8	-0.19614351
104	0x3dc952da	0.09830256
105	0x3dfabcaa	0.12243016
106	0xbdf91ec9	-0.12164075
107	0x3dfcce12	0.12343992
108	0xbe1e1a36	-0.15439686
109	0x3d33420c	0.04376416
110	0xbdcc4718	-0.099744976
111	0xbe3a4589	-0.18190588
112	0x3d9fb68a	0.077984884
113	0xbe35c4f5	-0.17750914
114	0x3d93f24e	0.0722395
115	0x3de70e9a	0.11282082
116	0x3e157895	0.1459678
117	0x3e46ff75	0.19433387
118	0xbd9fd806	-0.07804875
119	0xbe1a8a78	-0.15091884
120	0xbd885bea	-0.06658156
121	0x3d5bf1dc	0.053697452
122	0xbc60cd00	-0.013720751
123	0xbe35e8b4	-0.1776455
124	0x3d9b53a2	0.07584311
125	0x3d89459a	0.067027286
126	0x3d91fe86	0.071286246
127	0xbd6d4ba8	-0.05793348
128	0xbcbac3b0	-0.02279839
129	0x3ca3cbb8	0.019994602
130	0xbe4640b9	-0.19360627
131	0xbe1d89d8	-0.15384614
132	0x3ca7e1b0	0.020493358
133	0x3c88c508	0.016695514
134	0x3b011640	0.00196971
135	0xbdc42925	-0.0957816
136	0x3d008fc0	0.03138709
137	0x3c4bd790	0.012441531
138	0x3de0c3fe	0.109748825
139	0xbe28612d	-0.1644332
140	0x3d8e5956	0.06950633
141	0xbe1bbb3e	-0.15208146
142	0x3d530b6c	0.051524565
143	0x3e0afe11	0.13573481
144	0xbe0e1f70	-0.1387918
145	0xbb8bcb00	-0.004266143
146	0x3e0b80c3	0.13623337
147	0xbd5e6b8c	-0.054301783
148	0xbe1ea182	-0.15491298
149	0x3e3351d9	0.17511691
150	0xbe491237	-0.19635855
151	0x3dd7021e	0.10498451
152	0xbe474f65	-0.1946388
153	0x3e1cff07	0.1533166
154	0xbe32fbe3	-0.174789
155	0x3e55821b	0.20850413
156	0xbd23f3ac	-0.040027305
157	0xbe0e2437	-0.13881002
158	0x3d148014	0.036254957
159	0xbe578191	-0.2104552
160	0xbe2e6df4	-0.17034131
161	0x3e50952b	0.20369403
162	0x3cab8e28	0.020941809
163	0x3d0454f8	0.032307595
164	0xbb9ce920	-0.004788533
165	0x3dd8211e	0.105531916
166	0x3d8d6832	0.06904639
167	0x3e1ee2f3	0.15516262
168	0x3a2e1e00	0.00066420436
169	0x3e3ef8b3	0.18649559
170	0x3ca07b50	0.01959005
171	0xbd5b86d4	-0.05359538
172	0xbe0c64a8	-0.13710272
173	0xbe4e39f7	-0.201393
174	0xbd932bb0	-0.07186067
175	0x3e21c121	0.15796329
176	0x3deadcfe	0.11467932
177	0xbcc7b3c0	-0.024377704
178	0x3e5a9ad9	0.21348132
179	0xbd99ccc0	-0.07509756
180	0xbe1d8a8c	-0.15384883
181	0xbdaa64f0	-0.083200336
182	0xbe4519d0	-0.19248128
183	0x3e065359	0.13117732
184	0x3e42e8a3	0.19034056
185	0xbe4ef9b3	-0.2021244
186	0xbe06622e	-0.1312339
187	0xbe54c5b5	-0.20778544
188	0xbde08321	-0.10962511
189	0x3c81a1f0	0.015824288
190	0xbcaaee18	-0.020865485
191	0x3e025f41	0.12731649
192	0xbcea9278	-0.028634295
193	0x3cf2de40	0.029646993
194	0xbe4c2095	-0.19934304
195	0x3c427640	0.011869013
196	0xbe08e51a	-0.13368645
197	0x3e339f53	0.17541246
198	0xbbe1a260	-0.0068858117
199	0xbe37f06f	-0.17962812
200	0xbe42ce12	-0.19023922
201	0xbd873cca	-0.066033915
202	0xbdf93eae	-0.12170158
203	0xbcb848b8	-0.022495613
204	0xbe0633e4	-0.13105732
205	0x3e08404f	0.13305782
206	0x3e53dfdd	0.20690866
207	0x3b86e800	0.004117012
208	0x3e314c8f	0.17314361
209	0xbd8c7a70	-0.068592906
210	0x3da02b82	0.078207985
211	0xbe1ce6ba	-0.1532239
212	0xbe50aa2e	-0.20377418
213	0x3d3f3a74	0.046686605
214	0x3e4d5419	0.20051612
215	0xbd79be24	-0.060972348
216	0xbcdea418	-0.027177855
217	0xbdb79e5e	-0.08965753
218	0x3e467925	0.1938215
219	0x3e2204f7	0.15822206
220	0xbe38a535	-0.18031771
221	0x3d68f3d4	0.056873158
222	0xbcf8f5b0	-0.03039059
223	0xbe07b1ba	-0.13251391
224	0x3e5859bf	0.21127985
225	0xbe1fd504	-0.15608603
226	0x3dfcc4c2	0.12342216
227	0xbde2abc6	-0.110679194
228	0x3d9bd74e	0.076094255
229	0xbc2f4e70	-0.010699853
230	0x3d9c26c6	0.07624583
231	0x3d925ebe	0.07146977
232	0x3e1093a5	0.14118822
233	0x3dee8e52	0.11648239
234	0xbe3f1ba9	-0.18662895
235	0xbe0272ad	-0.12739058
236	0xbe278e90	-0.16362977
237	0x3dbd46c2	0.092420116
238	0x3e5c29df	0.21500348
239	0xbe21f6d5	-0.15816815
240	0x3e180fb1	0.14849736
241	0x3c35c540	0.011094391
242	0xbded6e70	-0.1159333
243	0x3dc5a19a	0.09649964
244	0x3e404a67	0.18778382
245	0xbe5b1d8f	-0.21397994
246	0xbbe3dea0	-0.006954029
247	0xbe45365a	-0.19259015
248	0x3e3210f5	0.17389281
249	0x3e53ff7d	0.2070293
250	0xbe2ee991	-0.17081286
251	0xbd386b74	-0.04502435
252	0xbe22006a	-0.1582047
253	0xbd946200	-0.072452545
254	0x3d9bb1b6	0.07602255
255	0x3e2e2207	0.17005168

eiconvOUT_layers.0.transform_h.weight f4 [64, 139]
0	0xbca79dca	-0.020460982
1	0xbd7f17a5	-0.06227841
2	0x3b5d9515	0.0033810784
3	0x3d3199dd	0.043359626
4	0xbda8c972	-0.08241548
5	0x3d807a3c	0.06273314
6	0xbdae7c17	-0.08519762
7	0xbbd09638	-0.0063655637
8	0xbc85a5b1	-0.01631436
9	0x3d5c7245	0.053819913
10	0xbd1461c5	-0.036226053
11	0xbce9cbb5	-0.028539518
12	0x3d07fed4	0.033202007
13	0xbcbea72a	-0.02327307
14	0x3d98ce69	0.074612446
15	0x3d645afc	0.055750832
16	0x3d19b033	0.037521552
17	0xbce7a881	-0.028278591
18	0xbd2bda14	-0.041956022
19	0x3c747199	0.014919662
20	0xbd87b9cb	-0.06627234
21	0xbc7bcaf3	-0.015368211
22	0x3ce98cad	0.028509462
23	0x3d232a22	0.039835103
24	0xbd46770c	-0.048453376
25	0x3cc3d86c	0.023906909
26	0x3b9fa2f7	0.004871722
27	0x3b9e724b	0.004835402
28	0x3d9ac16a	0.07556422
29	0x3d89daae	0.06731163
30	0x3cc946a2	0.024569813
31	0xbd602d65	-0.05473079
32	0xbd1c994a	-0.038232125
33	0xbd706f05	-0.058699626
34	0x3d052ca0	0.03251326
35	0x3bd72612	0.0065658176
36	0xbd17d4fb	-0.03706835
37	0xbd21c5d6	-0.03949531
38	0xbdb8bf21	-0.0902083
39	0x3d1c45bc	0.03815244
40	0xbb983a47	-0.004645619
41	0x3bd759f3	0.006572002
42	0x3d8a5e29	0.06756241
43	0xbda0bb22	-0.07848193
44	0x3caefe54	0.021361507
45	0x3bba0249	0.005676542
46	0x3d96bdc5	0.073604144
47	0xbd2452fd	-0.040118206
48	0xbd7977d2	-0.060905285
49	0xbd29be1f	-0.04144108
50	0xbd4d7617	-0.050161447
51	0x3da15feb	0.07879623
52	0xbd511722	-0.05104745
53	0xbcf6de25	-0.030135224
54	0x3d7d126f	0.061785158
55	0x3d66a167	0.05630627
56	0x3d5db0d9	0.054123733
57	0x3d0cb930	0.034356296
58	0x3d3dd459	0.04634509
59	0x3d937afa	0.0720119
60	0x3d9b0f9a	0.07571335
61	0x3d9fdc97	0.07805746
62	0x3d77de3e	0.06051468
63	0x3c93001b	0.017944386
64	0xbd086cfc	-0.03330706
65	0x3d8d12c2	0.068883434
66	0x3d835808	0.06413275
67	0xbd80f4b9	-0.06296677
68	0x3da109bc	0.07863185
69	0xbda8e283	-0.08246329
70	0x3d40b701	0.047049526
71	0xbc46f8c3	-0.01214427
72	0xbd247465	-0.040150065
73	0xbd9c768e	-0.076398
74	0xbd6f82fd	-0.05847453
75	0x3d927b83	0.07152464
76	0xbce59ed8	-0.028029844
77	0xbd62fdec	-0.05541794
78	0xbd841a2c	-0.064503044
79	0x3d6abefa	0.057311036
80	0xba6ec4ae	-0.0009108287
81	0x3d7f7d63	0.062375437
82	0xbd15dff6	-0.03659054
83	0x3c1de2ab	0.009636561
84	0x3cf883c8	0.030336276
85	0xbc33e34e	-0.010979487
86	0xbda7e775	-0.08198444
87	0x3cfdf571	0.031000825
88	0xbc40ff43	-0.011779609
89	0x3d23170a	0.039816894
90	0x3cb19f91	0.021682533
91	0x3da4996c	0.080370754
92	0xbd73d7f4	-0.05953212
93	0x3d825ac9	0.06364972
94	0xbd7b4fbd	-0.06135534
95	0xbc87f02d	-0.016594017
96	0x3ccdd611	0.025126489
97	0x3d9f6bb4	0.077842146
98	0x3c7b0bc7	0.015322632
99	0xbd5cc97e	-0.053903095
100	0xbd409a61	-0.047022227
101	0x3d8b507f	0.06802463
102	0xbb617c98	-0.003440654
103	0x3d1c5170	0.038163602
104	0x3d0a204f	0.033722218
105	0xbd5611b1	-0.052262966
106	0x3d0dddfa	0.03463552
107	0xbc57fb1a	-0.013182426
108	0x3d8b490a	0.068010405
109	0xbd1ff9f9	-0.039056752
110	0x3d7f8266	0.062380217
111	0x3c20a47b	0.00980484
112	0x3d27f183	0.041001808
113	0x3d847f5f	0.064696066
114	0x3d732aec	0.059367105
115	0x3d885a85	0.0665789
116	0x3ced9bdd	0.029004985
117	0xbd01d575	-0.03169771
118	0xbab63c84	-0.0013903533
119	0x3bfa67fe	0.0076417914
120	0xbd92fcd9	-0.07177133
121	0xbce6c0cd	-0.028168106
122	0xbd588e55	-0.052870113
123	0x3cc5d299	0.024148272
124	0xbd9a2410	-0.075264096
125	0xbd21933b	-0.03944705
126	0xbcdf0b1d	-0.027226979
127	0x3db2a5b0	0.08723009
128	0xbd689805	-0.056785602
129	0xbd8145e9	-0.063121624
130	0xbc864ec2	-0.016394977
131	0x3d3e4d6a	0.046460547
132	0x3d945e15	0.07244507
133	0x3d3ed8a0	0.04659331
134	0xbcdad356	-0.026712101
135	0xbd22f5e5	-0.039785285
136	0x3d72ba15	0.059259493
137	0xbd67527a	-0.05647514
138	0xbd5fdc70	-0.054653585
139	0x3d79ce22	0.0609876
140	0x3c80e0f4	0.015732266
141	0x3db5a750	0.08869803
142	0x3d200ed7	0.039076652
143	0x3d6fe8a3	0.05857147
144	0x3d8e12e9	0.069372006
145	0xbd58dbaf	-0.05294388
146	0xbd1f63d4	-0.038913563
147	0x3b8fa946	0.0043841926
148	0xbd056137	-0.032563414
149	0x3c787cd7	0.015166483
150	0x3ca5913c	0.020210855
151	0xbbb38c70	-0.005479388
152	0xbcabe73b	-0.020984283
153	0xbc5ece1b	-0.013598944
154	0x3db347e2	0.08753945
155	0x3d9ac2db	0.07556697
156	0xbda212fa	-0.07913776
157	0xbb2c7d26	-0.0026319711
158	0xbd5d1fd1	-0.05398542
159	0xbd565c84	-0.052334324
160	0x3da551a3	0.080722116
161	0xbcb96dfe	-0.022635456
162	0x3d8f76f3	0.0700511
163	0xbd199182	-0.037492283
164	0xbc1c45a4	-0.009538088
165	0x3c0dc29d	0.008652356
166	0x3c4683d0	0.0121163875
167	0x3d93bfd2	0.07214321
168	0xbd4a92ce	-0.04945641
169	0xbc850370	-0.01623699
170	0xbc13742d	-0.008999866
171	0xbdaab0ed	-0.08334527
172	0x3d9e1f20	0.077207804
173	0x3bd46336	0.0064815534
174	0xbd20439a	-0.03912697
175	0x3d0e60be	0.03476023
176	0xbd494905	-0.049141902
177	0x3dad57f9	0.08464045
178	0xbcd0f15f	-0.02550572
179	0x3d5b9c3d	0.053615797
180	0x3d025f16	0.031828962
181	0x3d94a39b	0.07257768
182	0xbd13176c	-0.03591101
183	0x3d5d0be4	0.053966418
184	0xbbf964cb	-0.0076108924
185	0xbd2b11ac	-0.0417649
186	0xbd0fc224	-0.035097256
187	0xbc97c4f5	-0.018526534
188	0xbbeab6a0	-0.007162884
189	0xbcdfda63	-0.027325815
190	0x3cd180fa	0.025574196
191	0x3d5fe347	0.054660108
192	0xbdacedc1	-0.084437855
193	0xbd1fa364	-0.03897418
194	0x3d04c446	0.032413743
195	0xbc72c9fd	-0.014818666
196	0x3d7f6e03	0.062360775
197	0xbd1bb297	-0.038012113
198	0x3d931b07	0.071828894
199	0xbd72bf15	-0.05926426
200	0xbc787f74	-0.015167106
201	0x3d59f4ae	0.05321186
202	0xbcffa82d	-0.031208122
203	0xbcd81fe8	-0.026382402
204	0xbd62fa41	-0.055414442
205	0xbd9c73ec	-0.07639298
206	0x3d236beb	0.03989784
207	0xbcd62850	-0.02614227
208	0xbd4fb762	-0.050711997
209	0xbbb405df	-0.005493864
210	0xbcaa5b35	-0.020795444
211	0xbcde611d	-0.027145917
212	0x3d8642d6	0.06555717
213	0xbafd4124	-0.0019321782
214	0xbc9a95ac	-0.018870197
215	0xbd809b0c	-0.06279573
216	0xbc046a99	-0.0080820555
217	0xbc4b0e0d	-0.012393487
218	0xbd8cf311	-0.06882299
219	0xbd25b409	-0.040454898
220	0xbd007502	-0.031361587
221	0xbc8e2f70	-0.017356604
222	0x3d248f1c	0.040175542
223	0xbb6a8be5	-0.003578895
224	0x3d7eec87	0.06223729
225	0xbc485280	-0.012226701
226	0xbc8585fd	-0.016299242
227	0x3cbb6a93	0.022877967
228	0xbaab5f5d	-0.0013074685
229	0x3d532720	0.051550984
230	0x3d5f72b3	0.054552745
231	0x3d0b3a55	0.033991177
232	0x3bdd4910	0.0067530945
233	0xbd91dfe5	-0.071227826
234	0x3d04f206	0.032457374
235	0xbcaa3b81	-0.020780327
236	0x3d699ba0	0.05703318
237	0x3d9db719	0.07700939
238	0x3d4a5f8e	0.049407534
239	0x3cfb3659	0.030665563
240	0x3d66b45e	0.056324355
241	0xba191706	-0.00058399176
242	0x3a78b43a	0.0009487305
243	0x3d6debcd	0.058086205
244	0x3c917934	0.01775799
245	0xbd87c4c9	-0.06629331
246	0x3d64e9d7	0.05588707
247	0x3d84ce92	0.06484713
248	0x3d8b36f0	0.06797588
249	0xbd42cd7a	-0.04755924
250	0x3d5dc7a5	0.054145474
251	0x3d1744e6	0.03693094
252	0xbdaf5b8f	-0.08562385
253	0xbd572b91	-0.052531783
254	0x3d1b0812	0.037849493
255	0x3d65d820	0.056114316

eiconvOUT_layers.0.Rainfall_in.weight f4 [128, 214]
0	0xbd1e9e5c	-0.038725242
1	0xbd1696fa	-0.036765076
2	0x3d80fc95	0.06298176
3	0x3c335de5	0.010947679
4	0x3d511dd9	0.051053856
5	0xbccf059b	-0.025271228
6	0x3d9c4f0a	0.07632263
7	0xbcff60e1	-0.031174125
8	0x3d7a2b6a	0.06107656
9	0xbd1ee699	-0.038794134
10	0x3d3506be	0.044195883
11	0x3be6e72e	0.0070466017
12	0x3d803f76	0.06262104
13	0xbcf0eca8	-0.029409721
14	0xbc019580	-0.007909179
15	0x3d8cbcdd	0.0687196
16	0x3d8e3904	0.069444686
17	0x3d3027be	0.04300665
18	0x3cc460a9	0.023971872
19	0xbd6fb0b9	-0.058518145
20	0xbc5e57c2	-0.013570728
21	0xbd2d2fec	-0.04228203
22	0x3d76a042	0.060211428
23	0xbd50e583	-0.05100013
24	0x3d77d882	0.060509212
25	0x3c9ff181	0.019524338
26	0xbd0a095f	-0.033700343
27	0x3d18fa8d	0.03734832
28	0x3d6e1f15	0.05813511
29	0x3d07df87	0.033172157
30	0xbd06f834	-0.03295155
31	0xbcb38d9d	-0.021918112
32	0xbd8fe4bc	-0.070260495
33	0x3c9797ef	0.018505065
34	0xbd0166f0	-0.03159231
35	0xbd2e2006	-0.04251101
36	0x3b084f55	0.0020799239
37	0x3d5b2995	0.053506453
38	0x3d9874be	0.07444142
39	0x3d678b18	0.056529135
40	0x3d86ef79	0.065886445
41	0x3d2c5c3c	0.04208015
42	0xbd84058e	-0.06446372
43	0xbcd1f23d	-0.025628204
44	0xbc5bfad1	-0.0134264985
45	0x3cb88f2c	0.022529207
46	0x3b51ec37	0.0032031664
47	0xbd280cc5	-0.041027803
48	0x3d04d92c	0.032433674
49	0x3d818fea	0.063262776
50	0xbd7c75b5	-0.06163569
51	0xbd535c6c	-0.051601812
52	0x3d82c9c1	0.06386138
53	0x3d693e20	0.056944013
54	0xbd9359b5	-0.07194845
55	0x3c9f13da	0.019418646
56	0xbcadfb0e	-0.021237876
57	0xbbc334e2	-0.005957232
58	0x3ce13636	0.02749167
59	0x3d8434ee	0.06455408
60	0xbd110942	-0.03540922
61	0xbd182f33	-0.037154388
62	0x3d12f140	0.035874605
63	0x3d030eae	0.03199642
64	0xbb880577	-0.004151042
65	0x3c8121cf	0.015763192
66	0x3d3975ed	0.04527848
67	0xbc316eb8	-0.01082962
68	0x3d137beb	0.03600685
69	0xbb3fee5b	-0.0029286358
70	0xbbc374f2	-0.0059648687
71	0x3d50f6de	0.05101668
72	0x3ca13b7c	0.019681685
73	0x3d7c2138	0.061555117
74	0x3cf84ecf	0.030311016
75	0xbd982563	-0.07429006
76	0xbd420aee	-0.047373705
77	0x3cbb7b80	0.022886038
78	0xbcf76b40	-0.030202508
79	0x3c0a7a46	0.008452004
80	0x3d19b165	0.037522692
81	0xbc1b3044	-0.009471957
82	0x3d0115b4	0.03151484
83	0x39f1cf1d	0.00046121413
84	0x3c77204e	0.015083386
85	0xbcb416fe	-0.02198362
86	0x3d6664d5	0.056248505
87	0x3b6e00f6	0.003631649
88	0x3c99316a	0.01870032
89	0x3d8291bb	0.06375452
90	0x3cf6c83b	0.030124774
91	0xbbfb56a3	-0.00767024
92	0x3d643491	0.055714194
93	0x3d69aa4b	0.05704717
94	0x3d2b2a22	0.041788228
95	0xbd1a1c46	-0.03762462
96	0xbd55bb24	-0.052180424
97	0xbb17b686	-0.0023149564
98	0x3ce0c6e2	0.027438585
99	0xbcac8db7	-0.021063669
100	0xbd1807b2	-0.037116714
101	0x3d2ad9f8	0.041711777
102	0xbce5073a	-0.027957547
103	0x3d54d5cf	0.051961716
104	0xbd5b95ad	-0.05360954
105	0x3ce46c49	0.027883666
106	0xbd6ee9d3	-0.05832846
107	0xbca61e78	-0.0202782
108	0x3c6da3f7	0.014504424
109	0xbd48ac86	-0.048992656
110	0x3be36b07	0.006940249
111	0x3bcaad70	0.006185226
112	0xbd0997d4	-0.03359206
113	0xbce0c9bc	-0.027439944
114	0x3d493e25	0.04913153
115	0x3d1e7e95	0.038694937
116	0x3cce8126	0.025208067
117	0x3d47e2b8	0.0488002
118	0x3ad7b2c4	0.0016456475
119	0x3d7637cc	0.060111806
120	0x3bb2fd33	0.0054623126
121	0xbb48f714	-0.0030664848
122	0x3c5cfa37	0.01348739
123	0xbd37d3a0	-0.044879556
124	0xbc9115c3	-0.017710572
125	0xbd597ab0	-0.05309552
126	0xbd84d230	-0.064854026
127	0x3d77513c	0.060380206
128	0xbc80f433	-0.015741443
129	0x3c566583	0.013085726
130	0xbc9791f0	-0.018502206
131	0xbd4f8956	-0.050668083
132	0xbba24d03	-0.004953028
133	0xbd767589	-0.060170684
134	0x3d09dbe9	0.03365699
135	0x3c1412bf	0.009037673
136	0xbd62db4c	-0.05538492
137	0xbd85a7e6	-0.06526165
138	0xbce130dc	-0.027489118
139	0x3abbb065	0.0014319537
140	0xbd5462ae	-0.05185192
141	0x3c2930d4	0.010326583
142	0xbd1c7184	-0.038194194
143	0xbd8da54e	-0.06916295
144	0x3d33fb12	0.04394061
145	0xbcabc515	-0.020968
146	0xbb22cf31	-0.0024842734
147	0x3c9fa6bf	0.01948869
148	0x3d3fc535	0.04681893
149	0x3b11a1f9	0.0022221787
150	0x3b47915d	0.0030451634
151	0xbd6ee31b	-0.058322053
152	0x3c8b27bd	0.016986722
153	0xbd0b7d8c	-0.034055278
154	0x3d760fda	0.06007371
155	0x3c8ebfc4	0.017425425
156	0x3c0c3ada	0.008558953
157	0x3d896f6b	0.067107044
158	0x3d09079b	0.03345452
159	0x3d3db441	0.04631448
160	0xbd0d6570	-0.034520566
161	0x3c67a3a3	0.014138135
162	0xbcd28bb0	-0.025701374
163	0xbcffe027	-0.031234814
164	0x3c18b375	0.00932013
165	0xbc3e46b6	-0.0116135385
166	0xbd0cdc1a	-0.034389593
167	0xbd4046e8	-0.04694262
168	0x3d90a1fe	0.070621476
169	0xbd88bb59	-0.06676359
170	0xbd29582d	-0.041343857
171	0xbb81767c	-0.003950892
172	0xbd23326e	-0.039843015
173	0x3d40f71a	0.047110654
174	0xbd6a5205	-0.057207126
175	0xbd5dd4c6	-0.054157995
176	0x3c82f662	0.015986625
177	0xbd0e9d67	-0.03481808
178	0x3d2fe1d3	0.042939972
179	0x3d25b885	0.040459175
180	0xbb1321fe	-0.002245068
181	0x3d0afdc6	0.033933423
182	0x3d4a00f9	0.049317334
183	0xbd44c18a	-0.048036136
184	0x3d7e23bd	0.0620458
185	0x3d82f3b6	0.063941404
186	0xbb6295da	-0.0034574182
187	0x3b389fc4	0.00281714
188	0x3c16bb78	0.0091999695
189	0xbc89d3af	-0.016824571
190	0xbd366fc0	-0.044540167
191	0xbcfeba6f	-0.031094758
192	0xbc7a0ad7	-0.0152613735
193	0xbcd4293c	-0.025898568
194	0x3cc507a5	0.024051497
195	0xbb9674ee	-0.004591576
196	0x3d1d5904	0.03841497
197	0x3d5a8e16	0.05335816
198	0xbb87f3cf	-0.0041489373
199	0xbd5c3592	-0.053762026
200	0xbd66ca71	-0.056345407
201	0x3c4de188	0.012565978
202	0xbd1d4d72	-0.038403936
203	0x3d006f04	0.031355873
204	0xbcd05962	-0.025433246
205	0xbbb5aa86	-0.0055440096
206	0x3c9807b1	0.018558355
207	0x3d652286	0.055941127
208	0x3d8979a3	0.067126535
209	0xbcd145de	-0.02554601
210	0x3d108a99	0.035288427
211	0x3bee0a60	0.0072644204
212	0x3d08acfc	0.033368096
213	0x3d3a544e	0.045490555
214	0x3d874728	0.06605369
215	0x3cb92529	0.022600727
216	0x3c3451a8	0.0110057965
217	0x3d7e11f9	0.06202886
218	0xbd879d96	-0.06621854
219	0xbd0c7d8b	-0.034299415
220	0xbd23e352	-0.04001171
221	0x3c22d0e4	0.009937499
222	0x3d53343a	0.05156348
223	0x3d2cdee6	0.04220476
224	0x3a485949	0.0007642699
225	0xbda46894	-0.08027759
226	0x3b9421b3	0.004520619
227	0x3d30e129	0.04318348
228	0xbce0de93	-0.027449882
229	0x3d02631e	0.031832807
230	0x3d0ebd7b	0.03484867
231	0x3d829bdf	0.06377386
232	0x3cbfabec	0.023397408
233	0xbd266b5c	-0.04062973
234	0xbce289b1	-0.027653547
235	0xbc05a344	-0.008156601
236	0xbd1ac0fd	-0.037781704
237	0xbc66c12d	-0.014084143
238	0xbd3a8f1e	-0.045546643
239	0xbd74f6c5	-0.05980565
240	0xbd74462e	-0.05963724
241	0xbc02800b	-0.007965098
242	0x3cb34bce	0.021886732
243	0x3d79a1cb	0.060945313
244	0xbba6065d	-0.0050666765
245	0xbcba9687	-0.022776855
246	0x3ca992af	0.020699827
247	0xbd62243c	-0.055210337
248	0x3d3f5b2e	0.046717815
249	0xbce6aa60	-0.028157413
250	0xbd377a69	-0.044794474
251	0xbcac61aa	-0.021042664
252	0x3cff5420	0.031168044
253	0xba004af2	-0.000489398
254	0x3d813802	0.06309511
255	0xbbfa93ef	-0.0076470296

eiconvOUT_layers.0.Rainfall_out.weight f4 [1, 128]
0	0x3c80e0f6	0.01573227
1	0x3db251fe	0.08707045
2	0xbc728429	-0.014802017
3	0x3a820d68	0.0009922208
4	0xbd707419	-0.05870447
5	0x3d0cb28e	0.03434997
6	0x3ccced1a	0.025015403
7	0x3cfe56b4	0.031047203
8	0x3d5f80ea	0.0545663
9	0xbd50ca36	-0.050974093
10	0xbcaabfb7	-0.02084337
11	0x3b3f5d01	0.0029199722
12	0xbd995f40	-0.074888706
13	0xbd6f8824	-0.058479443
14	0x3d2d0231	0.042238418
15	0xbd18fa7d	-0.03734826
16	0x3cfeff23	0.031127518
17	0xbdad6370	-0.08466232
18	0x3b0d4c84	0.00215605
19	0xbca703c8	-0.020387545
20	0x3d7910ea	0.060807146
21	0x3daacca8	0.08339816
22	0xbd83c980	-0.064349174
23	0xbd897da9	-0.06713421
24	0xbd7ffc8a	-0.0624967
25	0x3d8c50aa	0.06851323
26	0x3ce850b2	0.028358791
27	0xbd4c21a6	-0.049836777
28	0x3c2026c6	0.009774869
29	0xbc6e4c03	-0.01454449
30	0x3c4d8f7f	0.012546419
31	0xbcac6975	-0.02104638
32	0x3c9351d6	0.017983358
33	0x3d96db9e	0.073661074
34	0xbbc818b8	-0.0061064623
35	0xbae73ada	-0.001764144
36	0xbd9a9917	-0.07548731
37	0xba0d2332	-0.00053839677
38	0xbcef3361	-0.029199304
39	0x3ce14102	0.027496818
40	0xbd614e12	-0.055006094
41	0xbd21b26e	-0.039476804
42	0xbd73f568	-0.05956021
43	0xbc899402	-0.016794208
44	0x3d4cefcc	0.050033376
45	0x3dabf3b4	0.08396092
46	0x3cc0d0da	0.023537088
47	0x3da40fe5	0.08010844
48	0x3d5917bc	0.05300115
49	0xbd17ed06	-0.037091278
50	0x3d3b685f	0.045753833
51	0xbc04d5ab	-0.008107583
52	0x3d925f6e	0.07147108
53	0xbd551dc5	-0.052030344
54	0x3d830279	0.06396956
55	0xbbea82d8	-0.007156711
56	0xbc0a7638	-0.008451037
57	0x3ca32494	0.019914903
58	0x3c8116a0	0.015757859
59	0x3d3a875b	0.04553924
60	0x3d7c4a64	0.061594382
61	0x3d4c0cef	0.049817022
62	0x3d758ace	0.059946828
63	0x3d5dc6ae	0.054144554
64	0xbda8c942	-0.08241512
65	0xbc48a105	-0.012245421
66	0x3d9cd82d	0.0765842
67	0x3afe95e2	0.0019423331
68	0xbd59df9f	-0.053191777
69	0xbc50c623	-0.012742552
70	0xbd947d73	-0.0725049
71	0x3c70dd01	0.014701129
72	0x3d5714aa	0.05250994
73	0xbd45e8c7	-0.048317697
74	0x3b909a6c	0.00441294
75	0xbcb718e1	-0.02235073
76	0x3cf4e468	0.029894069
77	0x3d933176	0.07187168
78	0xbd5ff99b	-0.0546814
79	0xbbc1c433	-0.0059132813
80	0xbd65a7f5	-0.05606838
81	0x3d2a7948	0.04161957
82	0xbd9c40f5	-0.07629577
83	0xbd809892	-0.062791005
84	0xbc7c1e87	-0.015388138
85	0xbcd6937b	-0.026193371
86	0xba047c9a	-0.00050539675
87	0x3d890d57	0.066919975
88	0xbda83004	-0.08212283
89	0xbd7b11e4	-0.06129636
90	0xbdae677b	-0.08515831
91	0xbd85d5ed	-0.06534944
92	0xbbf81e97	-0.007572006
93	0xbda8d78f	-0.082442395
94	0x3beefbfd	0.007293223
95	0x3d0ec0d4	0.034851864
96	0x3d5f55d0	0.054525197
97	0xbd75d916	-0.060021482
98	0xbd0c5fde	-0.034271114
99	0xbc148253	-0.009064275
100	0xbcf68e27	-0.03009708
101	0x3c56aac7	0.01310224
102	0xbcdbf0fa	-0.026848305
103	0xbca8c18d	-0.020600105
104	0xbd9a4c95	-0.07534138
105	0xbd9119a3	-0.07084968
106	0x3d3ea475	0.046543557
107	0xbce75856	-0.028240364
108	0xbcdd66b2	-0.027026508
109	0x3c9baee0	0.019004285
110	0x3d14674a	0.036231317
111	0x3c30f579	0.010800713
112	0xbd9135f6	-0.0709037
113	0x3bdf1573	0.006807977
114	0xbd6bd945	-0.05758025
115	0xbd794411	-0.06085593
116	0x3da70c9d	0.08156703
117	0xba4aa715	-0.00077305856
118	0xbc937830	-0.018001646
119	0x3d5f3a9b	0.05449925
120	0xbcd29d7a	-0.025709856
121	0xbc541670	-0.012944803
122	0x3d90803e	0.0705571
123	0x3d241bcb	0.040065568
124	0x3da2aaa7	0.079427056
125	0x3c39e255	0.011345466
126	0x3d29d852	0.041466065
127	0x3d99690e	0.07490741

eiconvIN_layers.0.weight0e f4 [75, 64]
0	0x3e26a0db	0.16272299
1	0x3e4b260d	0.19838734
2	0xbe03162c	-0.12801427
3	0x3df7148a	0.120644644
4	0xbd96261e	-0.07331489
5	0x3dff1c8a	0.12456615
6	0x3d951abe	0.07280491
7	0x3e249367	0.16071855
8	0xbe41c311	-0.18922068
9	0xbdc631f2	-0.09677495
10	0xbd112648	-0.0354369
11	0x3e078885	0.13235672
12	0x3e4d61cb	0.20056836
13	0x3da1676e	0.07881056
14	0xbdae1691	-0.08500398
15	0xbc5ec8a0	-0.013597637
16	0xbe47d045	-0.19513042
17	0xbd7dcb40	-0.061961412
18	0x3de0bede	0.10973905
19	0xbd37d118	-0.04487714
20	0xbdf2161e	-0.11820625
21	0xbdb0f041	-0.08639575
22	0xbe06e71a	-0.13174096
23	0xbdaf6aa6	-0.085652635
24	0xbe2a7ad7	-0.16648422
25	0xbdef2590	-0.11677086
26	0xbadb2d80	-0.0016721934
27	0xbe4c1412	-0.19929531
28	0x3e25cb07	0.1619073
29	0x3d8e4e1a	0.069484904
30	0xbc1f2900	-0.009714365
31	0x3d702f9c	0.058639154
32	0x3e1f3965	0.15549238
33	0x3e15bfb3	0.14623909
34	0xbd2bad84	-0.041913524
35	0x3d0bfd48	0.034177095
36	0xbd08ee78	-0.033430547
37	0x3e0758db	0.1321749
38	0x3e0a1639	0.1348504
39	0x3adf2000	0.0017023087
40	0xbe13c656	-0.14431128
41	0x3df7705e	0.12081979
42	0x3dd8b236	0.10580866
43	0xbd3cee38	-0.04612562
44	0x3de80126	0.11328344
45	0x3d21199c	0.039331064
46	0xbcebfd10	-0.028807193
47	0x3e486b5b	0.19572203
48	0xbe239f8e	-0.15978834
49	0x3dd4c4a6	0.1038907
50	0x3e100a5f	0.14066456
51	0x3e0fe423	0.14051871
52	0x3e1d9b1f	0.15391205
53	0x3d06043c	0.032718882
54	0xbe435c2f	-0.19078134
55	0xbcff4190	-0.031159192
56	0xbd8e1008	-0.069366515
57	0x3d0b284c	0.033973977
58	0xbde10555	-0.10987345
59	0x3e2113cf	0.15730213
60	0x3d53f864	0.051750556
61	0xbe2e7bfe	-0.17039487
62	0x3e4a26f9	0.1974143
63	0xbd46bdbc	-0.04852079
64	0x3c8f3858	0.017482921
65	0xbd35fdf8	-0.044431657
66	0xbdd5816f	-0.10425078
67	0xbe4eb39b	-0.20185702
68	0x3e4c56b1	0.19954945
69	0x3e0473ab	0.12934749
70	0xbccd8d38	-0.025091752
71	0xbddd7589	-0.10813434
72	0xbe14d3d8	-0.14533937
73	0xbe054b94	-0.13017112
74	0xbe410464	-0.18849331
75	0xbce07588	-0.027399793
76	0xbdbb969d	-0.091595866
77	0xbda5c294	-0.080937535
78	0x3d825ff2	0.06365956
79	0xbdabf023	-0.08395412
80	0x3c799c00	0.015234947
81	0x3e03a58d	0.12856121
82	0x3d489cbc	0.0489776
83	0x3df0a216	0.117496654
84	0x3d9d8b8a	0.076926306
85	0x3b254b00	0.0025221705
86	0xbdedf370	-0.11618698
87	0x3e10ad33	0.1412857
88	0xbcabd3f0	-0.020975083
89	0xbe01b552	-0.12666824
90	0xbd2da468	-0.04239312
91	0xbcadb8d0	-0.02120629
92	0xbdd47782	-0.10374357
93	0x3e01f54b	0.12691228
94	0x3d601c8c	0.054714724
95	0xbde86303	-0.1134701
96	0xbdd5b7d7	-0.10435455
97	0x3ca5afb0	0.020225376
98	0xbdc8d469	-0.09806139
99	0xbd2d0030	-0.042236507
100	0x3e34b1ad	0.17645903
101	0xbe17928d	-0.14801998
102	0xbe3021b0	-0.17200351
103	0xbc735900	-0.014852762
104	0xbe03bea2	-0.1286569
105	0xbe3b74ab	-0.18306224
106	0xbde60aaf	-0.112325065
107	0xbdf6e6b0	-0.12055719
108	0xbe16d737	-0.14730535
109	0x3ceb8aa0	0.028752625
110	0xbcabf920	-0.020992815
111	0xbe3c72f9	-0.18403234
112	0x3be74920	0.0070582777
113	0x3d87b036	0.066254064
114	0x3dffe586	0.1249495
115	0x3e25728b	0.16156976
116	0x3d66d104	0.056351677
117	0x3e4010ed	0.18756457
118	0xbb8f1320	-0.0043662935
119	0x3e2c01bb	0.16797535
120	0xbc0b8970	-0.008516654
121	0x3dd93d7e	0.10607432
122	0x3e3645a3	0.17800002
123	0x3be770e0	0.0070630163
124	0x3e099e39	0.13439263
125	0xbe25e156	-0.1619924
126	0xbd105830	-0.035240352
127	0x3d998a1a	0.07497044
128	0xbe2c8668	-0.16848147
129	0x3d737bbc	0.059444174
130	0x3d18640c	0.037204787
131	0xbdb3f5ab	-0.08787092
132	0x3e0f4e23	0.1399465
133	0xbdb10a8d	-0.086445905
134	0x3dacbe7a	0.08434768
135	0x3dbc748a	0.092019156
136	0xbcaad520	-0.020853579
137	0xbd06b1f0	-0.03288454
138	0xbc582e10	-0.013194576
139	0x3e35d22f	0.1775596
140	0xbe39cb39	-0.1814393
141	0x3d71677c	0.05893658
142	0xbe1a18f8	-0.15048587
143	0x3e430243	0.19043832
144	0xbcfd61c8	-0.030930415
145	0xbda23cac	-0.079217285
146	0x3db2aeae	0.08724724
147	0x3dc8b1be	0.09799527
148	0x3e50a5eb	0.20375793
149	0x3e20e473	0.15712146
150	0x3d67281c	0.056434736
151	0x3de0f3fe	0.10984038
152	0xbdfd7598	-0.12375945
153	0xbe3a8ed7	-0.18218552
154	0xbdd91ac2	-0.10600807
155	0x3d122594	0.03568037
156	0x3e0c326d	0.13691111
157	0x3e05c591	0.13063647
158	0xbe230aae	-0.15922043
159	0xbdbc969a	-0.092084125
160	0xbdeb5ef5	-0.11492721
161	0xbdfe6650	-0.12421858
162	0xbd83a19e	-0.064273104
163	0x3cb672e0	0.022271574
164	0x3c7fe390	0.01561822
165	0xbd220d80	-0.039563656
166	0x3e37836b	0.17921226
167	0xbdee58c6	-0.11638026
168	0x3dda146e	0.10648428
169	0x3ca9cb58	0.020726845
170	0xbe427905	-0.18991478
171	0xbe357f8f	-0.17724441
172	0xbe275b47	-0.16343413
173	0x3d9062e6	0.070501134
174	0x3e40e9e3	0.1883922
175	0x3c436bb0	0.01192753
176	0xbe125a00	-0.14292145
177	0xbdd323df	-0.10309576
178	0xbca77930	-0.020443529
179	0xbdc84edf	-0.097806685
180	0x3df4d2e6	0.11954288
181	0xbe50e643	-0.20400338
182	0x3cc63dc0	0.024199367
183	0xbd67f180	-0.056626797
184	0x3ce81538	0.02833043
185	0xbe503c87	-0.2033559
186	0xbd6b4628	-0.057439953
187	0x3ddc81da	0.10766955
188	0x3cb5a4f0	0.022173375
189	0xbe0fac65	-0.14030607
190	0x3c154890	0.0091115385
191	0x3e2965ef	0.16542791
192	0x3d47ec74	0.048809484
193	0xbd09382c	-0.033500835
194	0xbdef70c6	-0.11691432
195	0xbc32bf30	-0.01090984
196	0x3decce8e	0.11562835
197	0xbd24a000	-0.04019165
198	0x3e0a758f	0.13521408
199	0xbe0e18e3	-0.13876681
200	0xbe4e46a9	-0.20144142
201	0x3c82f020	0.015983641
202	0xbd3136b0	-0.043265045
203	0x3d8a2e8a	0.06747158
204	0x3d6dc04c	0.058044717
205	0xbe08f222	-0.13373616
206	0xbe13f48f	-0.1444876
207	0x3e004c89	0.12529196
208	0x3dca4c0e	0.098777875
209	0xbe43a8bb	-0.19107334
210	0xbe4bcd42	-0.19902518
211	0xbdee15ae	-0.11625229
212	0xbc971db8	-0.018446788
213	0x3e23374f	0.15939067
214	0xbd8eed36	-0.06978838
215	0xbe2e6f52	-0.17034653
216	0x3c97fc68	0.018552974
217	0xbe36cb50	-0.17850995
218	0xbdc03c72	-0.09386529
219	0x3e40f255	0.18842442
220	0xbd097ecc	-0.03356819
221	0xbe418946	-0.18900022
222	0xbd93e9e0	-0.072223425
223	0xbd2f614c	-0.0428174
224	0x3d2bbf68	0.041930586
225	0x3e213717	0.15743671
226	0x3e44f575	0.1923426
227	0xbe2ea2f6	-0.17054352
228	0xbde4106a	-0.11135943
229	0x3d0d0f70	0.03443855
230	0x3e2bf24f	0.16791652
231	0x3daa0886	0.08302407
232	0x3e1f65d7	0.15566193
233	0xbdccf489	-0.10007579
234	0xbe00f6bc	-0.12594122
235	0x3e332f15	0.17498429
236	0xbe07426a	-0.13208929
237	0xbdf6ab30	-0.1204437
238	0xbd9640cc	-0.07336578
239	0xbd6338e4	-0.055474177
240	0xbcf03f00	-0.029326916
241	0xbdb38458	-0.08765477
242	0xbe186ade	-0.14884517
243	0xbb546180	-0.0032406747
244	0x3d8861f6	0.066593096
245	0x3d88337e	0.06650446
246	0x3dded1d6	0.10879867
247	0xbd99d05c	-0.075104445
248	0xbe0fccfe	-0.14043042
249	0x3cfb6480	0.03068757
250	0x3e1a7451	0.15083434
251	0x3e29a2b7	0.16565977
252	0x3e0b7993	0.13620596
253	0xbda6869a	-0.08131142
254	0xbe30c73c	-0.17263502
255	0xbd8eb706	-0.06968503

eiconvIN_layers.0.weight0h f4 [64, 64]
0	0x3c8902b8	0.01672493
1	0xbe09f4ce	-0.13472292
2	0xbe4bc7a7	-0.1990038
3	0x3d2e48f4	0.042550042
4	0xbd9ba418	-0.07599658
5	0x3e15ae17	0.14617191
6	0xbe3f2356	-0.18665823
7	0xbe155996	-0.14584956
8	0xbe476e6a	-0.19475713
9	0xbdf9df7a	-0.12200828
10	0x3d9545d2	0.07288708
11	0x3c385420	0.011250526
12	0xbe0cc0ce	-0.13745424
13	0xbd42a2e0	-0.04751861
14	0x3e3990d1	0.1812165
15	0x3e52b725	0.20577677
16	0x3e23443d	0.15944
17	0x3df22452	0.11823334
18	0x3ce2e660	0.027697742
19	0x3d67e9d4	0.05661948
20	0xbe07b6ea	-0.1325337
21	0xbd29bc04	-0.04143907
22	0x3e259de9	0.16173519
23	0xbdc89812	-0.0979463
24	0xbde1289b	-0.10994073
25	0x3e59e931	0.21280362
26	0x3d23fd4c	0.040036485
27	0x3da9b772	0.082869425
28	0x3e540e87	0.20708667
29	0xbd7ab08c	-0.061203524
30	0x3e54f487	0.20796405
31	0x3cb2fdb8	0.021849498
32	0x3dced45a	0.100990966
33	0x3e142251	0.14466216
34	0xbdca816b	-0.09887966
35	0x39fe3400	0.00048485398
36	0x3e445617	0.19173466
37	0x3dfd5eb6	0.1237158
38	0xbdd381d8	-0.103275
39	0xbe14b480	-0.1452198
40	0x3e040fb1	0.12896611
41	0x3da7c1c2	0.08191253
42	0xbe36f2e4	-0.17866093
43	0x3d1a9434	0.037738994
44	0x3d3b5f44	0.04574515
45	0x3d8105a2	0.062999025
46	0xbe4c142a	-0.19929567
47	0x3e553d63	0.20824198
48	0xbdafcbac	-0.08583769
49	0xbe304153	-0.17212419
50	0x3e2e05a7	0.16994344
51	0xbdf5af68	-0.11996347
52	0x3e14e401	0.14540102
53	0xbe417759	-0.18893184
54	0x3e555365	0.20832594
55	0xbe5a42e4	-0.21314579
56	0x3e5c3f57	0.21508537
57	0x3db09e06	0.086238906
58	0xbe079702	-0.13241199
59	0x3d95033a	0.07276006
60	0x3da02da6	0.07821207
61	0x3df25dea	0.11834319
62	0xbda4f50a	-0.0805455
63	0x3d3f4274	0.046694234
64	0xbe1561c0	-0.1458807
65	0x3d23d9fc	0.040002808
66	0xbe23bd0b	-0.15990083
67	0xbe576e0e	-0.21038076
68	0x3e2db025	0.16961725
69	0x3c135ec0	0.008994758
70	0xbe2d3e74	-0.16918355
71	0xbc25bb20	-0.010115415
72	0x3df97012	0.12179579
73	0x3c28ee80	0.010310769
74	0x3e4bdb31	0.19907834
75	0x3cdc10f8	0.02686356
76	0x3df3556e	0.11881529
77	0xbd815de8	-0.06316739
78	0xbe171537	-0.14754187
79	0x3c3dc3d0	0.01158233
80	0x3da9cfba	0.08291574
81	0x3d0d5fb4	0.034515098
82	0xbde8063f	-0.11329316
83	0x3d29cdec	0.041456148
84	0x3e4587cf	0.19290088
85	0xbe2c8554	-0.16847736
86	0xbe4c82d0	-0.19971776
87	0x3e58dc65	0.21177824
88	0x3d1f2c5c	0.038860664
89	0xbcb2a4b0	-0.021807045
90	0x3e52f593	0.20601492
91	0x3d5644ec	0.052311823
92	0x3e223893	0.15841894
93	0x3cd87898	0.026424691
94	0xbd5f14cc	-0.054463193
95	0x3d98f93a	0.07469411
96	0x3c934700	0.017978191
97	0xbe248bda	-0.16068974
98	0x3dab1c0e	0.083549604
99	0x3d5108e4	0.05103387
100	0xbe236c09	-0.15959181
101	0xbcfe1c68	-0.031019405
102	0xbdc04344	-0.0938783
103	0xbd7bf2ec	-0.061510965
104	0xbd6fa3b8	-0.058505744
105	0x3e316bab	0.17326228
106	0x3d5bbccc	0.053646848
107	0x3c562db0	0.013072416
108	0x3c529e80	0.012855172
109	0xbdce70a8	-0.10080081
110	0xbdbd7efe	-0.092527375
111	0xbe1d94a2	-0.1538873
112	0xbd468290	-0.048464358
113	0x3e3019cb	0.17197339
114	0xbc8c9a10	-0.017163306
115	0x3c4ac6e0	0.012376517
116	0x3b1a4040	0.002353683
117	0xbe3cff7e	-0.18456838
118	0x3e4a20a7	0.19739018
119	0x3e0a8903	0.13528828
120	0xbe1939b8	-0.14963424
121	0x3e458f3d	0.19292922
122	0x3e572351	0.21009566
123	0x3da79f76	0.08184712
124	0xbe359e4c	-0.17736167
125	0x3c2848c0	0.010271251
126	0x3e1e0d81	0.15434839
127	0x3db14c2a	0.08657105
128	0x3dd5bb1e	0.104360804
129	0x3dcaab3e	0.09895943
130	0xbd908f9e	-0.07058643
131	0xbe4c6086	-0.19958696
132	0x3e0edf99	0.13952483
133	0xbe581ea2	-0.21105435
134	0xbe4a71e5	-0.1977001
135	0xbe5d88f4	-0.21634275
136	0xbde2d7d9	-0.11076326
137	0x3e3211eb	0.17389648
138	0xbe519344	-0.20466334
139	0x3c4a5210	0.012348667
140	0xbe41e4d7	-0.18934952
141	0xbe14eb26	-0.14542827
142	0x3e2e9805	0.17050178
143	0xbe02200f	-0.12707542
144	0xbe20bb40	-0.1569643
145	0x3dc9cbae	0.09853302
146	0xbdb9ce00	-0.090724945
147	0xbe03aa60	-0.12857962
148	0x3d4c85ec	0.049932405
149	0x3e16fd3f	0.14745043
150	0xbda31088	-0.079621375
151	0x3e56a16f	0.2096002
152	0x3958b800	0.0002066791
153	0xbe32f5e5	-0.17476614
154	0x3c0a26f0	0.008432135
155	0xbe010581	-0.12599756
156	0xbe59ffdc	-0.21289009
157	0x3e2eb771	0.17062165
158	0xbe2a9cd2	-0.16661385
159	0xbd464af8	-0.04841134
160	0x3e494ac3	0.19657426
161	0xbd997370	-0.07492721
162	0x3e251df1	0.16124703
163	0xbe57aa2b	-0.21061008
164	0x3df487e2	0.1193998
165	0xbc87e070	-0.016586512
166	0x3be73980	0.007056415
167	0xbe1f9cb4	-0.15587121
168	0xbca31078	-0.019905314
169	0xbd1a8454	-0.037723854
170	0xbdec5da0	-0.11541295
171	0xbe17e3dd	-0.14833017
172	0x3e528bed	0.2056119
173	0xbd72cbd0	-0.059276402
174	0x3d9b6c96	0.075890705
175	0x3d883d1a	0.06652279
176	0xbe558814	-0.20852691
177	0x3d3d4bc4	0.046214834
178	0xbddd2210	-0.107975125
179	0x3e0f3b69	0.13987507
180	0x3e480c91	0.19536044
181	0x3df75236	0.12076227
182	0x3e49b80f	0.19699119
183	0xbdd3331a	-0.10312481
184	0xbced1ae8	-0.028943494
185	0xbddb41fd	-0.10705946
186	0x3e456cb9	0.19279756
187	0xbe22431a	-0.1584591
188	0xbe57aeec	-0.21062821
189	0x3c27a6f0	0.010232672
190	0x3d9180f2	0.071046725
191	0x3caee780	0.021350622
192	0x3d5ca9c4	0.05387284
193	0xbdb5903c	-0.08865401
194	0x3d01e8d8	0.031716198
195	0x3ce347b0	0.027744144
196	0xbe2b9674	-0.16756612
197	0x3e3af7c5	0.18258579
198	0x3e39cb57	0.18143974
199	0xbe05430a	-0.13013855
200	0x3d3caa6c	0.046060964
201	0xbe02d632	-0.12777022
202	0xbe028e81	-0.12749673
203	0xbe0c6f30	-0.1371429
204	0xbe21813b	-0.15771954
205	0x3e5851f7	0.21125017
206	0xbd3fc664	-0.04682006
207	0xbe00b96c	-0.12570733
208	0xbe3a2fb6	-0.18182263
209	0xbe002d4f	-0.12517284
210	0x3e1e7787	0.15475284
211	0xbdeb067a	-0.11475845
212	0xbe51ba60	-0.20481253
213	0xbe080aa4	-0.13285309
214	0xbda629e2	-0.08113457
215	0xbdf8c3a7	-0.12146693
216	0xbd4679e0	-0.048456073
217	0x3e21fbc7	0.15818702
218	0x3e300745	0.17190273
219	0xbbbf9c60	-0.005847499
220	0x3dd9ad7e	0.10628794
221	0xbe47dc76	-0.19517693
222	0x3d5c9f6c	0.053862974
223	0xbd11cee8	-0.03559771
224	0x3e135fb7	0.14391981
225	0xbcd21400	-0.025644302
226	0x3da52572	0.08063783
227	0xbe410271	-0.18848588
228	0x3d6d31bc	0.05790876
229	0x3d0bcfe4	0.034133807
230	0xbe24cde7	-0.1609417
231	0x3e2eccff	0.17070387
232	0xbdd252c6	-0.10269694
233	0xbe2d77d0	-0.16940236
234	0xbe2662c0	-0.16248608
235	0xbdae7d52	-0.08519997
236	0xbdd4ab4c	-0.10384235
237	0x3dec3a5a	0.11534567
238	0xbe53bd76	-0.20677742
239	0x3cf5fb28	0.030026987
240	0x3db05466	0.08609848
241	0x3e28a685	0.16469772
242	0xbc17ce20	-0.009265453
243	0x3e4afc51	0.19822814
244	0xbd9692f4	-0.07352248
245	0x3e3933f5	0.18086226
246	0x3d99380e	0.07481395
247	0xbdfbd472	-0.1229638
248	0x3cdfe008	0.027328506
249	0xbdfcd8a9	-0.12346012
250	0xbcaa4c08	-0.020788208
251	0x3dfc156a	0.12308772
252	0x3e374425	0.17897089
253	0xbd32fbec	-0.043697283
254	0xbd5aac3c	-0.05338691
255	0x3e0e32d9	0.13886584
